<?xml version="1.0"?>
<net name="main_graph" version="11">
	<layers>
		<layer id="0" name="input" type="Parameter" version="opset1">
			<data shape="1,3,224,224" element_type="f32" />
			<output>
				<port id="0" precision="FP32" names="input">
					<dim>1</dim>
					<dim>3</dim>
					<dim>224</dim>
					<dim>224</dim>
				</port>
			</output>
		</layer>
		<layer id="1" name="Constant_51688" type="Const" version="opset1">
			<data element_type="f32" shape="1, 1, 2304" offset="0" size="9216" />
			<output>
				<port id="0" precision="FP32">
					<dim>1</dim>
					<dim>1</dim>
					<dim>2304</dim>
				</port>
			</output>
		</layer>
		<layer id="2" name="Constant_51680" type="Const" version="opset1">
			<data element_type="f32" shape="1, 1, 2304" offset="9216" size="9216" />
			<output>
				<port id="0" precision="FP32">
					<dim>1</dim>
					<dim>1</dim>
					<dim>2304</dim>
				</port>
			</output>
		</layer>
		<layer id="3" name="Constant_51672" type="Const" version="opset1">
			<data element_type="f32" shape="1, 1, 2304" offset="18432" size="9216" />
			<output>
				<port id="0" precision="FP32">
					<dim>1</dim>
					<dim>1</dim>
					<dim>2304</dim>
				</port>
			</output>
		</layer>
		<layer id="4" name="Constant_51664" type="Const" version="opset1">
			<data element_type="f32" shape="1, 1, 2304" offset="27648" size="9216" />
			<output>
				<port id="0" precision="FP32">
					<dim>1</dim>
					<dim>1</dim>
					<dim>2304</dim>
				</port>
			</output>
		</layer>
		<layer id="5" name="Constant_51656" type="Const" version="opset1">
			<data element_type="f32" shape="1, 1, 2304" offset="36864" size="9216" />
			<output>
				<port id="0" precision="FP32">
					<dim>1</dim>
					<dim>1</dim>
					<dim>2304</dim>
				</port>
			</output>
		</layer>
		<layer id="6" name="Constant_51648" type="Const" version="opset1">
			<data element_type="f32" shape="1, 1, 2304" offset="46080" size="9216" />
			<output>
				<port id="0" precision="FP32">
					<dim>1</dim>
					<dim>1</dim>
					<dim>2304</dim>
				</port>
			</output>
		</layer>
		<layer id="7" name="Constant_51640" type="Const" version="opset1">
			<data element_type="f32" shape="1, 1, 2304" offset="55296" size="9216" />
			<output>
				<port id="0" precision="FP32">
					<dim>1</dim>
					<dim>1</dim>
					<dim>2304</dim>
				</port>
			</output>
		</layer>
		<layer id="8" name="Constant_51632" type="Const" version="opset1">
			<data element_type="f32" shape="1, 1, 2304" offset="64512" size="9216" />
			<output>
				<port id="0" precision="FP32">
					<dim>1</dim>
					<dim>1</dim>
					<dim>2304</dim>
				</port>
			</output>
		</layer>
		<layer id="9" name="Constant_51624" type="Const" version="opset1">
			<data element_type="f32" shape="1, 1, 2304" offset="73728" size="9216" />
			<output>
				<port id="0" precision="FP32">
					<dim>1</dim>
					<dim>1</dim>
					<dim>2304</dim>
				</port>
			</output>
		</layer>
		<layer id="10" name="Constant_51616" type="Const" version="opset1">
			<data element_type="f32" shape="1, 1, 2304" offset="82944" size="9216" />
			<output>
				<port id="0" precision="FP32">
					<dim>1</dim>
					<dim>1</dim>
					<dim>2304</dim>
				</port>
			</output>
		</layer>
		<layer id="11" name="Constant_51608" type="Const" version="opset1">
			<data element_type="f32" shape="1, 1, 2304" offset="92160" size="9216" />
			<output>
				<port id="0" precision="FP32">
					<dim>1</dim>
					<dim>1</dim>
					<dim>2304</dim>
				</port>
			</output>
		</layer>
		<layer id="12" name="Constant_51600" type="Const" version="opset1">
			<data element_type="f32" shape="1, 1, 2304" offset="101376" size="9216" />
			<output>
				<port id="0" precision="FP32">
					<dim>1</dim>
					<dim>1</dim>
					<dim>2304</dim>
				</port>
			</output>
		</layer>
		<layer id="13" name="class_token" type="Const" version="opset1">
			<data element_type="f32" shape="1, 1, 768" offset="110592" size="3072" />
			<output>
				<port id="0" precision="FP32" names="class_token">
					<dim>1</dim>
					<dim>1</dim>
					<dim>768</dim>
				</port>
			</output>
		</layer>
		<layer id="14" name="Constant_50871" type="Const" version="opset1">
			<data element_type="f32" shape="1, 3, 1, 1" offset="113664" size="12" />
			<rt_info>
				<attribute name="preprocessing" version="0" />
			</rt_info>
			<output>
				<port id="0" precision="FP32">
					<dim>1</dim>
					<dim>3</dim>
					<dim>1</dim>
					<dim>1</dim>
				</port>
			</output>
		</layer>
		<layer id="15" name="Multiply_50873" type="Multiply" version="opset1">
			<data auto_broadcast="numpy" />
			<input>
				<port id="0" precision="FP32">
					<dim>1</dim>
					<dim>3</dim>
					<dim>224</dim>
					<dim>224</dim>
				</port>
				<port id="1" precision="FP32">
					<dim>1</dim>
					<dim>3</dim>
					<dim>1</dim>
					<dim>1</dim>
				</port>
			</input>
			<output>
				<port id="2" precision="FP32">
					<dim>1</dim>
					<dim>3</dim>
					<dim>224</dim>
					<dim>224</dim>
				</port>
			</output>
		</layer>
		<layer id="16" name="Constant_50875" type="Const" version="opset1">
			<data element_type="f32" shape="1, 3, 1, 1" offset="113676" size="12" />
			<output>
				<port id="0" precision="FP32">
					<dim>1</dim>
					<dim>3</dim>
					<dim>1</dim>
					<dim>1</dim>
				</port>
			</output>
		</layer>
		<layer id="17" name="Divide_7395" type="Add" version="opset1">
			<data auto_broadcast="numpy" />
			<input>
				<port id="0" precision="FP32">
					<dim>1</dim>
					<dim>3</dim>
					<dim>224</dim>
					<dim>224</dim>
				</port>
				<port id="1" precision="FP32">
					<dim>1</dim>
					<dim>3</dim>
					<dim>1</dim>
					<dim>1</dim>
				</port>
			</input>
			<output>
				<port id="2" precision="FP32">
					<dim>1</dim>
					<dim>3</dim>
					<dim>224</dim>
					<dim>224</dim>
				</port>
			</output>
		</layer>
		<layer id="18" name="conv_proj.weight" type="Const" version="opset1">
			<data element_type="f32" shape="768, 3, 16, 16" offset="113688" size="2359296" />
			<output>
				<port id="0" precision="FP32" names="conv_proj.weight">
					<dim>768</dim>
					<dim>3</dim>
					<dim>16</dim>
					<dim>16</dim>
				</port>
			</output>
		</layer>
		<layer id="19" name="/conv_proj/Conv/WithoutBiases" type="Convolution" version="opset1">
			<data strides="16, 16" dilations="1, 1" pads_begin="0, 0" pads_end="0, 0" auto_pad="explicit" />
			<input>
				<port id="0" precision="FP32">
					<dim>1</dim>
					<dim>3</dim>
					<dim>224</dim>
					<dim>224</dim>
				</port>
				<port id="1" precision="FP32">
					<dim>768</dim>
					<dim>3</dim>
					<dim>16</dim>
					<dim>16</dim>
				</port>
			</input>
			<output>
				<port id="2" precision="FP32">
					<dim>1</dim>
					<dim>768</dim>
					<dim>14</dim>
					<dim>14</dim>
				</port>
			</output>
		</layer>
		<layer id="20" name="Reshape_188" type="Const" version="opset1">
			<data element_type="f32" shape="1, 768, 1, 1" offset="2472984" size="3072" />
			<output>
				<port id="0" precision="FP32">
					<dim>1</dim>
					<dim>768</dim>
					<dim>1</dim>
					<dim>1</dim>
				</port>
			</output>
		</layer>
		<layer id="21" name="/conv_proj/Conv" type="Add" version="opset1">
			<data auto_broadcast="numpy" />
			<input>
				<port id="0" precision="FP32">
					<dim>1</dim>
					<dim>768</dim>
					<dim>14</dim>
					<dim>14</dim>
				</port>
				<port id="1" precision="FP32">
					<dim>1</dim>
					<dim>768</dim>
					<dim>1</dim>
					<dim>1</dim>
				</port>
			</input>
			<output>
				<port id="2" precision="FP32" names="/conv_proj/Conv_output_0">
					<dim>1</dim>
					<dim>768</dim>
					<dim>14</dim>
					<dim>14</dim>
				</port>
			</output>
		</layer>
		<layer id="22" name="/Shape_2" type="ShapeOf" version="opset3">
			<data output_type="i64" />
			<input>
				<port id="0" precision="FP32">
					<dim>1</dim>
					<dim>3</dim>
					<dim>224</dim>
					<dim>224</dim>
				</port>
			</input>
			<output>
				<port id="1" precision="I64" names="/Shape_1_output_0,/Shape_2_output_0,/Shape_output_0">
					<dim>4</dim>
				</port>
			</output>
		</layer>
		<layer id="23" name="Constant_45150" type="Const" version="opset1">
			<data element_type="i64" shape="1" offset="2476056" size="8" />
			<output>
				<port id="0" precision="I64">
					<dim>1</dim>
				</port>
			</output>
		</layer>
		<layer id="24" name="Constant_157" type="Const" version="opset1">
			<data element_type="i64" shape="" offset="2476056" size="8" />
			<output>
				<port id="0" precision="I64" />
			</output>
		</layer>
		<layer id="25" name="/Gather" type="Gather" version="opset8">
			<data batch_dims="0" />
			<input>
				<port id="0" precision="I64">
					<dim>4</dim>
				</port>
				<port id="1" precision="I64">
					<dim>1</dim>
				</port>
				<port id="2" precision="I64" />
			</input>
			<output>
				<port id="3" precision="I64" names="/Gather_output_0,/Unsqueeze_output_0">
					<dim>1</dim>
				</port>
			</output>
		</layer>
		<layer id="26" name="/Constant_7" type="Const" version="opset1">
			<data element_type="i64" shape="1" offset="2476064" size="8" />
			<output>
				<port id="0" precision="I64" names="/Constant_7_output_0">
					<dim>1</dim>
				</port>
			</output>
		</layer>
		<layer id="27" name="/Constant_3" type="Const" version="opset1">
			<data element_type="i64" shape="" offset="2476072" size="8" />
			<output>
				<port id="0" precision="I64" names="/Constant_3_output_0" />
			</output>
		</layer>
		<layer id="28" name="Constant_162" type="Const" version="opset1">
			<data element_type="i64" shape="" offset="2476056" size="8" />
			<output>
				<port id="0" precision="I64" />
			</output>
		</layer>
		<layer id="29" name="/Gather_1" type="Gather" version="opset8">
			<data batch_dims="0" />
			<input>
				<port id="0" precision="I64">
					<dim>4</dim>
				</port>
				<port id="1" precision="I64" />
				<port id="2" precision="I64" />
			</input>
			<output>
				<port id="3" precision="I64" names="/Gather_1_output_0" />
			</output>
		</layer>
		<layer id="30" name="/Constant_5" type="Const" version="opset1">
			<data element_type="i64" shape="" offset="2476080" size="8" />
			<output>
				<port id="0" precision="I64" names="/Constant_5_output_0" />
			</output>
		</layer>
		<layer id="31" name="/Div" type="Divide" version="opset1">
			<data auto_broadcast="numpy" m_pythondiv="true" />
			<input>
				<port id="0" precision="I64" />
				<port id="1" precision="I64" />
			</input>
			<output>
				<port id="2" precision="I64" names="/Cast_1_output_0,/Cast_output_0,/Div_output_0" />
			</output>
		</layer>
		<layer id="32" name="/Constant_4" type="Const" version="opset1">
			<data element_type="i64" shape="" offset="2476088" size="8" />
			<output>
				<port id="0" precision="I64" names="/Constant_4_output_0" />
			</output>
		</layer>
		<layer id="33" name="Constant_166" type="Const" version="opset1">
			<data element_type="i64" shape="" offset="2476056" size="8" />
			<output>
				<port id="0" precision="I64" />
			</output>
		</layer>
		<layer id="34" name="/Gather_2" type="Gather" version="opset8">
			<data batch_dims="0" />
			<input>
				<port id="0" precision="I64">
					<dim>4</dim>
				</port>
				<port id="1" precision="I64" />
				<port id="2" precision="I64" />
			</input>
			<output>
				<port id="3" precision="I64" names="/Gather_2_output_0" />
			</output>
		</layer>
		<layer id="35" name="/Constant_6" type="Const" version="opset1">
			<data element_type="i64" shape="" offset="2476080" size="8" />
			<output>
				<port id="0" precision="I64" names="/Constant_6_output_0" />
			</output>
		</layer>
		<layer id="36" name="/Div_1" type="Divide" version="opset1">
			<data auto_broadcast="numpy" m_pythondiv="true" />
			<input>
				<port id="0" precision="I64" />
				<port id="1" precision="I64" />
			</input>
			<output>
				<port id="2" precision="I64" names="/Cast_2_output_0,/Cast_3_output_0,/Div_1_output_0" />
			</output>
		</layer>
		<layer id="37" name="/Mul" type="Multiply" version="opset1">
			<data auto_broadcast="numpy" />
			<input>
				<port id="0" precision="I64" />
				<port id="1" precision="I64" />
			</input>
			<output>
				<port id="2" precision="I64" names="/Mul_output_0" />
			</output>
		</layer>
		<layer id="38" name="Constant_740" type="Const" version="opset1">
			<data element_type="i64" shape="1" offset="2476056" size="8" />
			<output>
				<port id="0" precision="I64" names="onnx::Unsqueeze_181">
					<dim>1</dim>
				</port>
			</output>
		</layer>
		<layer id="39" name="/Unsqueeze_1" type="Unsqueeze" version="opset1">
			<input>
				<port id="0" precision="I64" />
				<port id="1" precision="I64">
					<dim>1</dim>
				</port>
			</input>
			<output>
				<port id="2" precision="I64" names="/Unsqueeze_1_output_0">
					<dim>1</dim>
				</port>
			</output>
		</layer>
		<layer id="40" name="/Concat" type="Concat" version="opset1">
			<data axis="0" />
			<input>
				<port id="0" precision="I64">
					<dim>1</dim>
				</port>
				<port id="1" precision="I64">
					<dim>1</dim>
				</port>
				<port id="2" precision="I64">
					<dim>1</dim>
				</port>
			</input>
			<output>
				<port id="3" precision="I64" names="/Concat_output_0">
					<dim>3</dim>
				</port>
			</output>
		</layer>
		<layer id="41" name="/Reshape" type="Reshape" version="opset1">
			<data special_zero="true" />
			<input>
				<port id="0" precision="FP32">
					<dim>1</dim>
					<dim>768</dim>
					<dim>14</dim>
					<dim>14</dim>
				</port>
				<port id="1" precision="I64">
					<dim>3</dim>
				</port>
			</input>
			<output>
				<port id="2" precision="FP32" names="/Reshape_output_0">
					<dim>1</dim>
					<dim>768</dim>
					<dim>196</dim>
				</port>
			</output>
		</layer>
		<layer id="42" name="Constant_310" type="Const" version="opset1">
			<data element_type="i64" shape="3" offset="2476096" size="24" />
			<output>
				<port id="0" precision="I64">
					<dim>3</dim>
				</port>
			</output>
		</layer>
		<layer id="43" name="/Transpose" type="Transpose" version="opset1">
			<input>
				<port id="0" precision="FP32">
					<dim>1</dim>
					<dim>768</dim>
					<dim>196</dim>
				</port>
				<port id="1" precision="I64">
					<dim>3</dim>
				</port>
			</input>
			<output>
				<port id="2" precision="FP32" names="/Transpose_output_0">
					<dim>1</dim>
					<dim>196</dim>
					<dim>768</dim>
				</port>
			</output>
		</layer>
		<layer id="44" name="/Shape_3" type="ShapeOf" version="opset3">
			<data output_type="i64" />
			<input>
				<port id="0" precision="FP32">
					<dim>1</dim>
					<dim>196</dim>
					<dim>768</dim>
				</port>
			</input>
			<output>
				<port id="1" precision="I64" names="/Shape_3_output_0">
					<dim>3</dim>
				</port>
			</output>
		</layer>
		<layer id="45" name="Constant_45155" type="Const" version="opset1">
			<data element_type="i64" shape="1" offset="2476056" size="8" />
			<output>
				<port id="0" precision="I64">
					<dim>1</dim>
				</port>
			</output>
		</layer>
		<layer id="46" name="Constant_314" type="Const" version="opset1">
			<data element_type="i64" shape="" offset="2476056" size="8" />
			<output>
				<port id="0" precision="I64" />
			</output>
		</layer>
		<layer id="47" name="/Gather_3" type="Gather" version="opset8">
			<data batch_dims="0" />
			<input>
				<port id="0" precision="I64">
					<dim>3</dim>
				</port>
				<port id="1" precision="I64">
					<dim>1</dim>
				</port>
				<port id="2" precision="I64" />
			</input>
			<output>
				<port id="3" precision="I64" names="/Gather_3_output_0,/Unsqueeze_2_output_0">
					<dim>1</dim>
				</port>
			</output>
		</layer>
		<layer id="48" name="/Constant_10" type="Const" version="opset1">
			<data element_type="i64" shape="1" offset="2476120" size="8" />
			<output>
				<port id="0" precision="I64" names="/Constant_10_output_0">
					<dim>1</dim>
				</port>
			</output>
		</layer>
		<layer id="49" name="/Constant_11" type="Const" version="opset1">
			<data element_type="i64" shape="1" offset="2476120" size="8" />
			<output>
				<port id="0" precision="I64" names="/Constant_11_output_0">
					<dim>1</dim>
				</port>
			</output>
		</layer>
		<layer id="50" name="/Concat_1" type="Concat" version="opset1">
			<data axis="0" />
			<input>
				<port id="0" precision="I64">
					<dim>1</dim>
				</port>
				<port id="1" precision="I64">
					<dim>1</dim>
				</port>
				<port id="2" precision="I64">
					<dim>1</dim>
				</port>
			</input>
			<output>
				<port id="3" precision="I64" names="/Concat_1_output_0">
					<dim>3</dim>
				</port>
			</output>
		</layer>
		<layer id="51" name="Constant_11967" type="Const" version="opset1">
			<data element_type="i64" shape="1" offset="2476120" size="8" />
			<output>
				<port id="0" precision="I64">
					<dim>1</dim>
				</port>
			</output>
		</layer>
		<layer id="52" name="/Reshape_1" type="Reshape" version="opset1">
			<data special_zero="true" />
			<input>
				<port id="0" precision="I64">
					<dim>3</dim>
				</port>
				<port id="1" precision="I64">
					<dim>1</dim>
				</port>
			</input>
			<output>
				<port id="2" precision="I64" names="/Reshape_1_output_0">
					<dim>3</dim>
				</port>
			</output>
		</layer>
		<layer id="53" name="/Mul_1" type="Const" version="opset1">
			<data element_type="i64" shape="3" offset="2476128" size="24" />
			<output>
				<port id="0" precision="I64" names="/Mul_1_output_0">
					<dim>3</dim>
				</port>
			</output>
		</layer>
		<layer id="54" name="/Equal" type="Equal" version="opset1">
			<data auto_broadcast="numpy" />
			<input>
				<port id="0" precision="I64">
					<dim>3</dim>
				</port>
				<port id="1" precision="I64">
					<dim>3</dim>
				</port>
			</input>
			<output>
				<port id="2" precision="BOOL" names="/Equal_output_0">
					<dim>3</dim>
				</port>
			</output>
		</layer>
		<layer id="55" name="/ConstantOfShape" type="Const" version="opset1">
			<data element_type="i64" shape="3" offset="2476152" size="24" />
			<output>
				<port id="0" precision="I64" names="/ConstantOfShape_output_0">
					<dim>3</dim>
				</port>
			</output>
		</layer>
		<layer id="56" name="/Where" type="Select" version="opset1">
			<data auto_broadcast="numpy" />
			<input>
				<port id="0" precision="BOOL">
					<dim>3</dim>
				</port>
				<port id="1" precision="I64">
					<dim>3</dim>
				</port>
				<port id="2" precision="I64">
					<dim>3</dim>
				</port>
			</input>
			<output>
				<port id="3" precision="I64" names="/Where_output_0">
					<dim>3</dim>
				</port>
			</output>
		</layer>
		<layer id="57" name="/Expand" type="Broadcast" version="opset3">
			<data mode="bidirectional" />
			<input>
				<port id="0" precision="FP32">
					<dim>1</dim>
					<dim>1</dim>
					<dim>768</dim>
				</port>
				<port id="1" precision="I64">
					<dim>3</dim>
				</port>
			</input>
			<output>
				<port id="2" precision="FP32" names="/Expand_output_0">
					<dim>1</dim>
					<dim>1</dim>
					<dim>768</dim>
				</port>
			</output>
		</layer>
		<layer id="58" name="/Concat_2" type="Concat" version="opset1">
			<data axis="1" />
			<input>
				<port id="0" precision="FP32">
					<dim>1</dim>
					<dim>1</dim>
					<dim>768</dim>
				</port>
				<port id="1" precision="FP32">
					<dim>1</dim>
					<dim>196</dim>
					<dim>768</dim>
				</port>
			</input>
			<output>
				<port id="2" precision="FP32" names="/Concat_2_output_0">
					<dim>1</dim>
					<dim>197</dim>
					<dim>768</dim>
				</port>
			</output>
		</layer>
		<layer id="59" name="encoder.pos_embedding" type="Const" version="opset1">
			<data element_type="f32" shape="1, 197, 768" offset="2476176" size="605184" />
			<output>
				<port id="0" precision="FP32" names="encoder.pos_embedding">
					<dim>1</dim>
					<dim>197</dim>
					<dim>768</dim>
				</port>
			</output>
		</layer>
		<layer id="60" name="/encoder/Add" type="Add" version="opset1">
			<data auto_broadcast="numpy" />
			<input>
				<port id="0" precision="FP32">
					<dim>1</dim>
					<dim>197</dim>
					<dim>768</dim>
				</port>
				<port id="1" precision="FP32">
					<dim>1</dim>
					<dim>197</dim>
					<dim>768</dim>
				</port>
			</input>
			<output>
				<port id="2" precision="FP32" names="/encoder/Add_output_0">
					<dim>1</dim>
					<dim>197</dim>
					<dim>768</dim>
				</port>
			</output>
		</layer>
		<layer id="61" name="Constant_361" type="Const" version="opset1">
			<data element_type="i64" shape="1" offset="2476120" size="8" />
			<output>
				<port id="0" precision="I64">
					<dim>1</dim>
				</port>
			</output>
		</layer>
		<layer id="62" name="/encoder/layers/encoder_layer_0/ln_1/Div" type="MVN" version="opset6">
			<data eps="9.9999999747524271e-07" normalize_variance="true" eps_mode="INSIDE_SQRT" />
			<input>
				<port id="0" precision="FP32">
					<dim>1</dim>
					<dim>197</dim>
					<dim>768</dim>
				</port>
				<port id="1" precision="I64">
					<dim>1</dim>
				</port>
			</input>
			<output>
				<port id="2" precision="FP32" names="/encoder/layers/encoder_layer_0/ln_1/Div_output_0">
					<dim>1</dim>
					<dim>197</dim>
					<dim>768</dim>
				</port>
			</output>
		</layer>
		<layer id="63" name="Constant_51598" type="Const" version="opset1">
			<data element_type="f32" shape="1, 1, 768" offset="3081360" size="3072" />
			<output>
				<port id="0" precision="FP32">
					<dim>1</dim>
					<dim>1</dim>
					<dim>768</dim>
				</port>
			</output>
		</layer>
		<layer id="64" name="/encoder/layers/encoder_layer_0/ln_1/Mul" type="Multiply" version="opset1">
			<data auto_broadcast="numpy" />
			<input>
				<port id="0" precision="FP32">
					<dim>1</dim>
					<dim>197</dim>
					<dim>768</dim>
				</port>
				<port id="1" precision="FP32">
					<dim>1</dim>
					<dim>1</dim>
					<dim>768</dim>
				</port>
			</input>
			<output>
				<port id="2" precision="FP32" names="/encoder/layers/encoder_layer_0/ln_1/Mul_output_0">
					<dim>1</dim>
					<dim>197</dim>
					<dim>768</dim>
				</port>
			</output>
		</layer>
		<layer id="65" name="Constant_51599" type="Const" version="opset1">
			<data element_type="f32" shape="1, 1, 768" offset="3084432" size="3072" />
			<output>
				<port id="0" precision="FP32">
					<dim>1</dim>
					<dim>1</dim>
					<dim>768</dim>
				</port>
			</output>
		</layer>
		<layer id="66" name="/encoder/layers/encoder_layer_0/ln_1/Add_1" type="Add" version="opset1">
			<data auto_broadcast="numpy" />
			<input>
				<port id="0" precision="FP32">
					<dim>1</dim>
					<dim>197</dim>
					<dim>768</dim>
				</port>
				<port id="1" precision="FP32">
					<dim>1</dim>
					<dim>1</dim>
					<dim>768</dim>
				</port>
			</input>
			<output>
				<port id="2" precision="FP32" names="/encoder/layers/encoder_layer_0/ln_1/Add_1_output_0">
					<dim>1</dim>
					<dim>197</dim>
					<dim>768</dim>
				</port>
			</output>
		</layer>
		<layer id="67" name="Constant_374" type="Const" version="opset1">
			<data element_type="i64" shape="3" offset="3087504" size="24" />
			<output>
				<port id="0" precision="I64">
					<dim>3</dim>
				</port>
			</output>
		</layer>
		<layer id="68" name="/encoder/layers/encoder_layer_0/self_attention/Transpose" type="Transpose" version="opset1">
			<input>
				<port id="0" precision="FP32">
					<dim>1</dim>
					<dim>197</dim>
					<dim>768</dim>
				</port>
				<port id="1" precision="I64">
					<dim>3</dim>
				</port>
			</input>
			<output>
				<port id="2" precision="FP32" names="/encoder/layers/encoder_layer_0/self_attention/Transpose_output_0">
					<dim>197</dim>
					<dim>1</dim>
					<dim>768</dim>
				</port>
			</output>
		</layer>
		<layer id="69" name="Transpose_50722" type="Const" version="opset1">
			<data element_type="f32" shape="2304, 768" offset="3087528" size="7077888" />
			<output>
				<port id="0" precision="FP32">
					<dim>2304</dim>
					<dim>768</dim>
				</port>
			</output>
		</layer>
		<layer id="70" name="/encoder/layers/encoder_layer_0/self_attention/MatMul" type="MatMul" version="opset1">
			<data transpose_a="false" transpose_b="true" />
			<input>
				<port id="0" precision="FP32">
					<dim>197</dim>
					<dim>1</dim>
					<dim>768</dim>
				</port>
				<port id="1" precision="FP32">
					<dim>2304</dim>
					<dim>768</dim>
				</port>
			</input>
			<output>
				<port id="2" precision="FP32" names="/encoder/layers/encoder_layer_0/self_attention/MatMul_output_0">
					<dim>197</dim>
					<dim>1</dim>
					<dim>2304</dim>
				</port>
			</output>
		</layer>
		<layer id="71" name="/encoder/layers/encoder_layer_0/self_attention/Add" type="Add" version="opset1">
			<data auto_broadcast="numpy" />
			<input>
				<port id="0" precision="FP32">
					<dim>1</dim>
					<dim>1</dim>
					<dim>2304</dim>
				</port>
				<port id="1" precision="FP32">
					<dim>197</dim>
					<dim>1</dim>
					<dim>2304</dim>
				</port>
			</input>
			<output>
				<port id="2" precision="FP32" names="/encoder/layers/encoder_layer_0/self_attention/Add_output_0">
					<dim>197</dim>
					<dim>1</dim>
					<dim>2304</dim>
				</port>
			</output>
		</layer>
		<layer id="72" name="/encoder/layers/encoder_layer_0/self_attention/Shape_4" type="ShapeOf" version="opset3">
			<data output_type="i64" />
			<input>
				<port id="0" precision="FP32">
					<dim>197</dim>
					<dim>1</dim>
					<dim>2304</dim>
				</port>
			</input>
			<output>
				<port id="1" precision="I64" names="/encoder/layers/encoder_layer_0/self_attention/Shape_4_output_0">
					<dim>3</dim>
				</port>
			</output>
		</layer>
		<layer id="73" name="/encoder/layers/encoder_layer_0/self_attention/Constant_11" type="Const" version="opset1">
			<data element_type="i64" shape="1" offset="2476056" size="8" />
			<output>
				<port id="0" precision="I64" names="/encoder/layers/encoder_layer_0/self_attention/Constant_11_output_0">
					<dim>1</dim>
				</port>
			</output>
		</layer>
		<layer id="74" name="/encoder/layers/encoder_layer_0/self_attention/Reshape" type="Const" version="opset1">
			<data element_type="i64" shape="1" offset="2476072" size="8" />
			<output>
				<port id="0" precision="I64" names="/encoder/layers/encoder_layer_0/self_attention/Reshape_output_0">
					<dim>1</dim>
				</port>
			</output>
		</layer>
		<layer id="75" name="Broadcast_422" type="Const" version="opset1">
			<data element_type="i64" shape="1" offset="10165416" size="8" />
			<output>
				<port id="0" precision="I64">
					<dim>1</dim>
				</port>
			</output>
		</layer>
		<layer id="76" name="/encoder/layers/encoder_layer_0/self_attention/Slice_1" type="StridedSlice" version="opset1">
			<data begin_mask="0" end_mask="0" new_axis_mask="" shrink_axis_mask="" ellipsis_mask="" />
			<input>
				<port id="0" precision="I64">
					<dim>3</dim>
				</port>
				<port id="1" precision="I64">
					<dim>1</dim>
				</port>
				<port id="2" precision="I64">
					<dim>1</dim>
				</port>
				<port id="3" precision="I64">
					<dim>1</dim>
				</port>
			</input>
			<output>
				<port id="4" precision="I64" names="/encoder/layers/encoder_layer_0/self_attention/Slice_1_output_0">
					<dim>2</dim>
				</port>
			</output>
		</layer>
		<layer id="77" name="/encoder/layers/encoder_layer_0/self_attention/Constant_8" type="Const" version="opset1">
			<data element_type="i64" shape="1" offset="2476088" size="8" />
			<output>
				<port id="0" precision="I64" names="/encoder/layers/encoder_layer_0/self_attention/Constant_8_output_0">
					<dim>1</dim>
				</port>
			</output>
		</layer>
		<layer id="78" name="/encoder/layers/encoder_layer_0/self_attention/Shape" type="ShapeOf" version="opset3">
			<data output_type="i64" />
			<input>
				<port id="0" precision="FP32">
					<dim>197</dim>
					<dim>1</dim>
					<dim>768</dim>
				</port>
			</input>
			<output>
				<port id="1" precision="I64" names="/encoder/layers/encoder_layer_0/self_attention/Shape_1_output_0,/encoder/layers/encoder_layer_0/self_attention/Shape_2_output_0,/encoder/layers/encoder_layer_0/self_attention/Shape_3_output_0,/encoder/layers/encoder_layer_0/self_attention/Shape_output_0">
					<dim>3</dim>
				</port>
			</output>
		</layer>
		<layer id="79" name="/encoder/layers/encoder_layer_0/self_attention/Constant_5" type="Const" version="opset1">
			<data element_type="i64" shape="1" offset="2476120" size="8" />
			<output>
				<port id="0" precision="I64" names="/encoder/layers/encoder_layer_0/self_attention/Constant_5_output_0">
					<dim>1</dim>
				</port>
			</output>
		</layer>
		<layer id="80" name="/encoder/layers/encoder_layer_0/self_attention/Constant_6" type="Const" version="opset1">
			<data element_type="i64" shape="1" offset="10165424" size="8" />
			<output>
				<port id="0" precision="I64" names="/encoder/layers/encoder_layer_0/self_attention/Constant_6_output_0">
					<dim>1</dim>
				</port>
			</output>
		</layer>
		<layer id="81" name="Broadcast_398" type="Const" version="opset1">
			<data element_type="i64" shape="1" offset="10165416" size="8" />
			<output>
				<port id="0" precision="I64">
					<dim>1</dim>
				</port>
			</output>
		</layer>
		<layer id="82" name="/encoder/layers/encoder_layer_0/self_attention/Slice" type="StridedSlice" version="opset1">
			<data begin_mask="0" end_mask="0" new_axis_mask="" shrink_axis_mask="" ellipsis_mask="" />
			<input>
				<port id="0" precision="I64">
					<dim>3</dim>
				</port>
				<port id="1" precision="I64">
					<dim>1</dim>
				</port>
				<port id="2" precision="I64">
					<dim>1</dim>
				</port>
				<port id="3" precision="I64">
					<dim>1</dim>
				</port>
			</input>
			<output>
				<port id="4" precision="I64" names="/encoder/layers/encoder_layer_0/self_attention/Slice_output_0">
					<dim>1</dim>
				</port>
			</output>
		</layer>
		<layer id="83" name="/encoder/layers/encoder_layer_0/self_attention/Constant_7" type="Const" version="opset1">
			<data element_type="i64" shape="1" offset="2476056" size="8" />
			<output>
				<port id="0" precision="I64" names="/encoder/layers/encoder_layer_0/self_attention/Constant_7_output_0">
					<dim>1</dim>
				</port>
			</output>
		</layer>
		<layer id="84" name="/encoder/layers/encoder_layer_0/self_attention/Squeeze" type="Squeeze" version="opset1">
			<input>
				<port id="0" precision="I64">
					<dim>1</dim>
				</port>
				<port id="1" precision="I64">
					<dim>1</dim>
				</port>
			</input>
			<output>
				<port id="2" precision="I64" names="/encoder/layers/encoder_layer_0/self_attention/Squeeze_output_0" />
			</output>
		</layer>
		<layer id="85" name="Constant_799" type="Const" version="opset1">
			<data element_type="i64" shape="1" offset="2476056" size="8" />
			<output>
				<port id="0" precision="I64" names="onnx::Unsqueeze_245">
					<dim>1</dim>
				</port>
			</output>
		</layer>
		<layer id="86" name="/encoder/layers/encoder_layer_0/self_attention/Unsqueeze" type="Unsqueeze" version="opset1">
			<input>
				<port id="0" precision="I64" />
				<port id="1" precision="I64">
					<dim>1</dim>
				</port>
			</input>
			<output>
				<port id="2" precision="I64" names="/encoder/layers/encoder_layer_0/self_attention/Unsqueeze_output_0">
					<dim>1</dim>
				</port>
			</output>
		</layer>
		<layer id="87" name="/encoder/layers/encoder_layer_0/self_attention/Concat" type="Concat" version="opset1">
			<data axis="0" />
			<input>
				<port id="0" precision="I64">
					<dim>1</dim>
				</port>
				<port id="1" precision="I64">
					<dim>1</dim>
				</port>
			</input>
			<output>
				<port id="2" precision="I64" names="/encoder/layers/encoder_layer_0/self_attention/Concat_output_0">
					<dim>2</dim>
				</port>
			</output>
		</layer>
		<layer id="88" name="/encoder/layers/encoder_layer_0/self_attention/Concat_1" type="Concat" version="opset1">
			<data axis="0" />
			<input>
				<port id="0" precision="I64">
					<dim>2</dim>
				</port>
				<port id="1" precision="I64">
					<dim>2</dim>
				</port>
			</input>
			<output>
				<port id="2" precision="I64" names="/encoder/layers/encoder_layer_0/self_attention/Concat_1_output_0">
					<dim>4</dim>
				</port>
			</output>
		</layer>
		<layer id="89" name="/encoder/layers/encoder_layer_0/self_attention/Reshape_2" type="Reshape" version="opset1">
			<data special_zero="true" />
			<input>
				<port id="0" precision="FP32">
					<dim>197</dim>
					<dim>1</dim>
					<dim>2304</dim>
				</port>
				<port id="1" precision="I64">
					<dim>4</dim>
				</port>
			</input>
			<output>
				<port id="2" precision="FP32" names="/encoder/layers/encoder_layer_0/self_attention/Reshape_2_output_0">
					<dim>197</dim>
					<dim>1</dim>
					<dim>3</dim>
					<dim>768</dim>
				</port>
			</output>
		</layer>
		<layer id="90" name="/encoder/layers/encoder_layer_0/self_attention/Constant_16" type="Const" version="opset1">
			<data element_type="i64" shape="1" offset="2476056" size="8" />
			<output>
				<port id="0" precision="I64" names="/encoder/layers/encoder_layer_0/self_attention/Constant_16_output_0">
					<dim>1</dim>
				</port>
			</output>
		</layer>
		<layer id="91" name="/encoder/layers/encoder_layer_0/self_attention/Unsqueeze_1" type="Unsqueeze" version="opset1">
			<input>
				<port id="0" precision="FP32">
					<dim>197</dim>
					<dim>1</dim>
					<dim>3</dim>
					<dim>768</dim>
				</port>
				<port id="1" precision="I64">
					<dim>1</dim>
				</port>
			</input>
			<output>
				<port id="2" precision="FP32" names="/encoder/layers/encoder_layer_0/self_attention/Unsqueeze_1_output_0">
					<dim>1</dim>
					<dim>197</dim>
					<dim>1</dim>
					<dim>3</dim>
					<dim>768</dim>
				</port>
			</output>
		</layer>
		<layer id="92" name="Constant_50178" type="Const" version="opset1">
			<data element_type="i64" shape="1" offset="2476056" size="8" />
			<output>
				<port id="0" precision="I64">
					<dim>1</dim>
				</port>
			</output>
		</layer>
		<layer id="93" name="Squeeze_50179" type="Squeeze" version="opset1">
			<input>
				<port id="0" precision="FP32">
					<dim>1</dim>
					<dim>197</dim>
					<dim>1</dim>
					<dim>3</dim>
					<dim>768</dim>
				</port>
				<port id="1" precision="I64">
					<dim>1</dim>
				</port>
			</input>
			<output>
				<port id="2" precision="FP32">
					<dim>197</dim>
					<dim>1</dim>
					<dim>3</dim>
					<dim>768</dim>
				</port>
			</output>
		</layer>
		<layer id="94" name="Constant_50180" type="Const" version="opset1">
			<data element_type="i64" shape="4" offset="10165432" size="32" />
			<output>
				<port id="0" precision="I64">
					<dim>4</dim>
				</port>
			</output>
		</layer>
		<layer id="95" name="/encoder/layers/encoder_layer_0/self_attention/Squeeze_1" type="Transpose" version="opset1">
			<input>
				<port id="0" precision="FP32">
					<dim>197</dim>
					<dim>1</dim>
					<dim>3</dim>
					<dim>768</dim>
				</port>
				<port id="1" precision="I64">
					<dim>4</dim>
				</port>
			</input>
			<output>
				<port id="2" precision="FP32" names="/encoder/layers/encoder_layer_0/self_attention/Squeeze_1_output_0">
					<dim>3</dim>
					<dim>197</dim>
					<dim>1</dim>
					<dim>768</dim>
				</port>
			</output>
		</layer>
		<layer id="96" name="/Constant" type="Const" version="opset1">
			<data element_type="i64" shape="" offset="2476056" size="8" />
			<output>
				<port id="0" precision="I64" names="/Constant_output_0" />
			</output>
		</layer>
		<layer id="97" name="Constant_457" type="Const" version="opset1">
			<data element_type="i64" shape="" offset="2476056" size="8" />
			<output>
				<port id="0" precision="I64" />
			</output>
		</layer>
		<layer id="98" name="/encoder/layers/encoder_layer_0/self_attention/Gather_3" type="Gather" version="opset8">
			<data batch_dims="0" />
			<input>
				<port id="0" precision="FP32">
					<dim>3</dim>
					<dim>197</dim>
					<dim>1</dim>
					<dim>768</dim>
				</port>
				<port id="1" precision="I64" />
				<port id="2" precision="I64" />
			</input>
			<output>
				<port id="3" precision="FP32" names="/encoder/layers/encoder_layer_0/self_attention/Gather_3_output_0">
					<dim>197</dim>
					<dim>1</dim>
					<dim>768</dim>
				</port>
			</output>
		</layer>
		<layer id="99" name="Constant_45160" type="Const" version="opset1">
			<data element_type="i64" shape="1" offset="2476056" size="8" />
			<output>
				<port id="0" precision="I64">
					<dim>1</dim>
				</port>
			</output>
		</layer>
		<layer id="100" name="Constant_378" type="Const" version="opset1">
			<data element_type="i64" shape="" offset="2476056" size="8" />
			<output>
				<port id="0" precision="I64" />
			</output>
		</layer>
		<layer id="101" name="/encoder/layers/encoder_layer_0/self_attention/Gather" type="Gather" version="opset8">
			<data batch_dims="0" />
			<input>
				<port id="0" precision="I64">
					<dim>3</dim>
				</port>
				<port id="1" precision="I64">
					<dim>1</dim>
				</port>
				<port id="2" precision="I64" />
			</input>
			<output>
				<port id="3" precision="I64" names="/encoder/layers/encoder_layer_0/self_attention/Gather_output_0,/encoder/layers/encoder_layer_0/self_attention/Unsqueeze_10_output_0,/encoder/layers/encoder_layer_0/self_attention/Unsqueeze_20_output_0,/encoder/layers/encoder_layer_0/self_attention/Unsqueeze_2_output_0">
					<dim>1</dim>
				</port>
			</output>
		</layer>
		<layer id="102" name="/encoder/layers/encoder_layer_0/self_attention/Constant_1" type="Const" version="opset1">
			<data element_type="i64" shape="" offset="10165416" size="8" />
			<output>
				<port id="0" precision="I64" names="/encoder/layers/encoder_layer_0/self_attention/Constant_1_output_0" />
			</output>
		</layer>
		<layer id="103" name="Constant_382" type="Const" version="opset1">
			<data element_type="i64" shape="" offset="2476056" size="8" />
			<output>
				<port id="0" precision="I64" />
			</output>
		</layer>
		<layer id="104" name="/encoder/layers/encoder_layer_0/self_attention/Gather_1" type="Gather" version="opset8">
			<data batch_dims="0" />
			<input>
				<port id="0" precision="I64">
					<dim>3</dim>
				</port>
				<port id="1" precision="I64" />
				<port id="2" precision="I64" />
			</input>
			<output>
				<port id="3" precision="I64" names="/encoder/layers/encoder_layer_0/self_attention/Gather_1_output_0" />
			</output>
		</layer>
		<layer id="105" name="/encoder/layers/encoder_layer_0/self_attention/Constant_18" type="Const" version="opset1">
			<data element_type="i64" shape="" offset="10165464" size="8" />
			<output>
				<port id="0" precision="I64" names="/encoder/layers/encoder_layer_0/self_attention/Constant_18_output_0" />
			</output>
		</layer>
		<layer id="106" name="/encoder/layers/encoder_layer_0/self_attention/Mul" type="Multiply" version="opset1">
			<data auto_broadcast="numpy" />
			<input>
				<port id="0" precision="I64" />
				<port id="1" precision="I64" />
			</input>
			<output>
				<port id="2" precision="I64" names="/encoder/layers/encoder_layer_0/self_attention/Mul_output_0" />
			</output>
		</layer>
		<layer id="107" name="Constant_846" type="Const" version="opset1">
			<data element_type="i64" shape="1" offset="2476056" size="8" />
			<output>
				<port id="0" precision="I64" names="onnx::Unsqueeze_298">
					<dim>1</dim>
				</port>
			</output>
		</layer>
		<layer id="108" name="/encoder/layers/encoder_layer_0/self_attention/Unsqueeze_7" type="Unsqueeze" version="opset1">
			<input>
				<port id="0" precision="I64" />
				<port id="1" precision="I64">
					<dim>1</dim>
				</port>
			</input>
			<output>
				<port id="2" precision="I64" names="/encoder/layers/encoder_layer_0/self_attention/Unsqueeze_3_output_0,/encoder/layers/encoder_layer_0/self_attention/Unsqueeze_5_output_0,/encoder/layers/encoder_layer_0/self_attention/Unsqueeze_7_output_0">
					<dim>1</dim>
				</port>
			</output>
		</layer>
		<layer id="109" name="/encoder/layers/encoder_layer_0/self_attention/Constant_2" type="Const" version="opset1">
			<data element_type="i64" shape="" offset="2476072" size="8" />
			<output>
				<port id="0" precision="I64" names="/encoder/layers/encoder_layer_0/self_attention/Constant_2_output_0" />
			</output>
		</layer>
		<layer id="110" name="Constant_386" type="Const" version="opset1">
			<data element_type="i64" shape="" offset="2476056" size="8" />
			<output>
				<port id="0" precision="I64" />
			</output>
		</layer>
		<layer id="111" name="/encoder/layers/encoder_layer_0/self_attention/Gather_2" type="Gather" version="opset8">
			<data batch_dims="0" />
			<input>
				<port id="0" precision="I64">
					<dim>3</dim>
				</port>
				<port id="1" precision="I64" />
				<port id="2" precision="I64" />
			</input>
			<output>
				<port id="3" precision="I64" names="/encoder/layers/encoder_layer_0/self_attention/Gather_2_output_0" />
			</output>
		</layer>
		<layer id="112" name="/encoder/layers/encoder_layer_0/self_attention/Constant_3" type="Const" version="opset1">
			<data element_type="i64" shape="" offset="10165464" size="8" />
			<output>
				<port id="0" precision="I64" names="/encoder/layers/encoder_layer_0/self_attention/Constant_3_output_0" />
			</output>
		</layer>
		<layer id="113" name="/encoder/layers/encoder_layer_0/self_attention/Div" type="Divide" version="opset1">
			<data auto_broadcast="numpy" m_pythondiv="true" />
			<input>
				<port id="0" precision="I64" />
				<port id="1" precision="I64" />
			</input>
			<output>
				<port id="2" precision="I64" names="/encoder/layers/encoder_layer_0/self_attention/Cast_1_output_0,/encoder/layers/encoder_layer_0/self_attention/Cast_output_0,/encoder/layers/encoder_layer_0/self_attention/Div_output_0" />
			</output>
		</layer>
		<layer id="114" name="Constant_878" type="Const" version="opset1">
			<data element_type="i64" shape="1" offset="2476056" size="8" />
			<output>
				<port id="0" precision="I64" names="onnx::Unsqueeze_334">
					<dim>1</dim>
				</port>
			</output>
		</layer>
		<layer id="115" name="/encoder/layers/encoder_layer_0/self_attention/Unsqueeze_17" type="Unsqueeze" version="opset1">
			<input>
				<port id="0" precision="I64" />
				<port id="1" precision="I64">
					<dim>1</dim>
				</port>
			</input>
			<output>
				<port id="2" precision="I64" names="/encoder/layers/encoder_layer_0/self_attention/Unsqueeze_11_output_0,/encoder/layers/encoder_layer_0/self_attention/Unsqueeze_14_output_0,/encoder/layers/encoder_layer_0/self_attention/Unsqueeze_17_output_0,/encoder/layers/encoder_layer_0/self_attention/Unsqueeze_4_output_0,/encoder/layers/encoder_layer_0/self_attention/Unsqueeze_6_output_0,/encoder/layers/encoder_layer_0/self_attention/Unsqueeze_8_output_0">
					<dim>1</dim>
				</port>
			</output>
		</layer>
		<layer id="116" name="/encoder/layers/encoder_layer_0/self_attention/Concat_2" type="Concat" version="opset1">
			<data axis="0" />
			<input>
				<port id="0" precision="I64">
					<dim>1</dim>
				</port>
				<port id="1" precision="I64">
					<dim>1</dim>
				</port>
				<port id="2" precision="I64">
					<dim>1</dim>
				</port>
			</input>
			<output>
				<port id="3" precision="I64" names="/encoder/layers/encoder_layer_0/self_attention/Concat_2_output_0">
					<dim>3</dim>
				</port>
			</output>
		</layer>
		<layer id="117" name="/encoder/layers/encoder_layer_0/self_attention/Reshape_3" type="Reshape" version="opset1">
			<data special_zero="true" />
			<input>
				<port id="0" precision="FP32">
					<dim>197</dim>
					<dim>1</dim>
					<dim>768</dim>
				</port>
				<port id="1" precision="I64">
					<dim>3</dim>
				</port>
			</input>
			<output>
				<port id="2" precision="FP32" names="/encoder/layers/encoder_layer_0/self_attention/Reshape_3_output_0">
					<dim>197</dim>
					<dim>12</dim>
					<dim>64</dim>
				</port>
			</output>
		</layer>
		<layer id="118" name="Constant_529" type="Const" version="opset1">
			<data element_type="i64" shape="3" offset="3087504" size="24" />
			<output>
				<port id="0" precision="I64">
					<dim>3</dim>
				</port>
			</output>
		</layer>
		<layer id="119" name="/encoder/layers/encoder_layer_0/self_attention/Transpose_2" type="Transpose" version="opset1">
			<input>
				<port id="0" precision="FP32">
					<dim>197</dim>
					<dim>12</dim>
					<dim>64</dim>
				</port>
				<port id="1" precision="I64">
					<dim>3</dim>
				</port>
			</input>
			<output>
				<port id="2" precision="FP32" names="/encoder/layers/encoder_layer_0/self_attention/Transpose_2_output_0">
					<dim>12</dim>
					<dim>197</dim>
					<dim>64</dim>
				</port>
			</output>
		</layer>
		<layer id="120" name="Constant_914" type="Const" version="opset1">
			<data element_type="i64" shape="1" offset="2476056" size="8" />
			<output>
				<port id="0" precision="I64" names="onnx::Unsqueeze_370">
					<dim>1</dim>
				</port>
			</output>
		</layer>
		<layer id="121" name="/encoder/layers/encoder_layer_0/self_attention/Unsqueeze_21" type="Unsqueeze" version="opset1">
			<input>
				<port id="0" precision="I64" />
				<port id="1" precision="I64">
					<dim>1</dim>
				</port>
			</input>
			<output>
				<port id="2" precision="I64" names="/encoder/layers/encoder_layer_0/self_attention/Unsqueeze_12_output_0,/encoder/layers/encoder_layer_0/self_attention/Unsqueeze_15_output_0,/encoder/layers/encoder_layer_0/self_attention/Unsqueeze_21_output_0,/encoder/layers/encoder_layer_0/self_attention/Unsqueeze_9_output_0">
					<dim>1</dim>
				</port>
			</output>
		</layer>
		<layer id="122" name="/encoder/layers/encoder_layer_0/self_attention/Constant_22" type="Const" version="opset1">
			<data element_type="i64" shape="1" offset="10165464" size="8" />
			<output>
				<port id="0" precision="I64" names="/encoder/layers/encoder_layer_0/self_attention/Constant_22_output_0">
					<dim>1</dim>
				</port>
			</output>
		</layer>
		<layer id="123" name="/encoder/layers/encoder_layer_0/self_attention/Concat_5" type="Concat" version="opset1">
			<data axis="0" />
			<input>
				<port id="0" precision="I64">
					<dim>1</dim>
				</port>
				<port id="1" precision="I64">
					<dim>1</dim>
				</port>
				<port id="2" precision="I64">
					<dim>1</dim>
				</port>
				<port id="3" precision="I64">
					<dim>1</dim>
				</port>
			</input>
			<output>
				<port id="4" precision="I64" names="/encoder/layers/encoder_layer_0/self_attention/Concat_5_output_0">
					<dim>4</dim>
				</port>
			</output>
		</layer>
		<layer id="124" name="/encoder/layers/encoder_layer_0/self_attention/Reshape_6" type="Reshape" version="opset1">
			<data special_zero="true" />
			<input>
				<port id="0" precision="FP32">
					<dim>12</dim>
					<dim>197</dim>
					<dim>64</dim>
				</port>
				<port id="1" precision="I64">
					<dim>4</dim>
				</port>
			</input>
			<output>
				<port id="2" precision="FP32" names="/encoder/layers/encoder_layer_0/self_attention/Reshape_6_output_0">
					<dim>1</dim>
					<dim>12</dim>
					<dim>197</dim>
					<dim>64</dim>
				</port>
			</output>
		</layer>
		<layer id="125" name="/encoder/layers/encoder_layer_0/self_attention/Constant_27" type="Const" version="opset1">
			<data element_type="f32" shape="1" offset="10165472" size="4" />
			<output>
				<port id="0" precision="FP32" names="/encoder/layers/encoder_layer_0/self_attention/Constant_27_output_0">
					<dim>1</dim>
				</port>
			</output>
		</layer>
		<layer id="126" name="/encoder/layers/encoder_layer_0/self_attention/Shape_6" type="ShapeOf" version="opset3">
			<data output_type="i64" />
			<input>
				<port id="0" precision="FP32">
					<dim>1</dim>
					<dim>12</dim>
					<dim>197</dim>
					<dim>64</dim>
				</port>
			</input>
			<output>
				<port id="1" precision="I64" names="/encoder/layers/encoder_layer_0/self_attention/Shape_6_output_0">
					<dim>4</dim>
				</port>
			</output>
		</layer>
		<layer id="127" name="/encoder/layers/encoder_layer_0/self_attention/Constant_25" type="Const" version="opset1">
			<data element_type="i64" shape="1" offset="2476120" size="8" />
			<output>
				<port id="0" precision="I64" names="/encoder/layers/encoder_layer_0/self_attention/Constant_25_output_0">
					<dim>1</dim>
				</port>
			</output>
		</layer>
		<layer id="128" name="/encoder/layers/encoder_layer_0/self_attention/Constant_26" type="Const" version="opset1">
			<data element_type="i64" shape="1" offset="10165424" size="8" />
			<output>
				<port id="0" precision="I64" names="/encoder/layers/encoder_layer_0/self_attention/Constant_26_output_0">
					<dim>1</dim>
				</port>
			</output>
		</layer>
		<layer id="129" name="Broadcast_865" type="Const" version="opset1">
			<data element_type="i64" shape="1" offset="10165416" size="8" />
			<output>
				<port id="0" precision="I64">
					<dim>1</dim>
				</port>
			</output>
		</layer>
		<layer id="130" name="/encoder/layers/encoder_layer_0/self_attention/Slice_3" type="StridedSlice" version="opset1">
			<data begin_mask="0" end_mask="0" new_axis_mask="" shrink_axis_mask="" ellipsis_mask="" />
			<input>
				<port id="0" precision="I64">
					<dim>4</dim>
				</port>
				<port id="1" precision="I64">
					<dim>1</dim>
				</port>
				<port id="2" precision="I64">
					<dim>1</dim>
				</port>
				<port id="3" precision="I64">
					<dim>1</dim>
				</port>
			</input>
			<output>
				<port id="4" precision="I64" names="/encoder/layers/encoder_layer_0/self_attention/Slice_3_output_0">
					<dim>1</dim>
				</port>
			</output>
		</layer>
		<layer id="131" name="/encoder/layers/encoder_layer_0/self_attention/Cast_2" type="Convert" version="opset1">
			<data destination_type="f32" />
			<input>
				<port id="0" precision="I64">
					<dim>1</dim>
				</port>
			</input>
			<output>
				<port id="1" precision="FP32" names="/encoder/layers/encoder_layer_0/self_attention/Cast_2_output_0">
					<dim>1</dim>
				</port>
			</output>
		</layer>
		<layer id="132" name="/encoder/layers/encoder_layer_0/self_attention/Sqrt" type="Sqrt" version="opset1">
			<input>
				<port id="0" precision="FP32">
					<dim>1</dim>
				</port>
			</input>
			<output>
				<port id="1" precision="FP32" names="/encoder/layers/encoder_layer_0/self_attention/Sqrt_output_0">
					<dim>1</dim>
				</port>
			</output>
		</layer>
		<layer id="133" name="/encoder/layers/encoder_layer_0/self_attention/Div_1" type="Divide" version="opset1">
			<data auto_broadcast="numpy" m_pythondiv="true" />
			<input>
				<port id="0" precision="FP32">
					<dim>1</dim>
				</port>
				<port id="1" precision="FP32">
					<dim>1</dim>
				</port>
			</input>
			<output>
				<port id="2" precision="FP32" names="/encoder/layers/encoder_layer_0/self_attention/Cast_3_output_0,/encoder/layers/encoder_layer_0/self_attention/Div_1_output_0">
					<dim>1</dim>
				</port>
			</output>
		</layer>
		<layer id="134" name="/encoder/layers/encoder_layer_0/self_attention/Sqrt_1" type="Sqrt" version="opset1">
			<input>
				<port id="0" precision="FP32">
					<dim>1</dim>
				</port>
			</input>
			<output>
				<port id="1" precision="FP32" names="/encoder/layers/encoder_layer_0/self_attention/Sqrt_1_output_0">
					<dim>1</dim>
				</port>
			</output>
		</layer>
		<layer id="135" name="/encoder/layers/encoder_layer_0/self_attention/Mul_1" type="Multiply" version="opset1">
			<data auto_broadcast="numpy" />
			<input>
				<port id="0" precision="FP32">
					<dim>1</dim>
					<dim>12</dim>
					<dim>197</dim>
					<dim>64</dim>
				</port>
				<port id="1" precision="FP32">
					<dim>1</dim>
				</port>
			</input>
			<output>
				<port id="2" precision="FP32" names="/encoder/layers/encoder_layer_0/self_attention/Mul_1_output_0">
					<dim>1</dim>
					<dim>12</dim>
					<dim>197</dim>
					<dim>64</dim>
				</port>
			</output>
		</layer>
		<layer id="136" name="/conv_proj/Constant" type="Const" version="opset1">
			<data element_type="i64" shape="" offset="10165416" size="8" />
			<output>
				<port id="0" precision="I64" names="/conv_proj/Constant_output_0" />
			</output>
		</layer>
		<layer id="137" name="Constant_459" type="Const" version="opset1">
			<data element_type="i64" shape="" offset="2476056" size="8" />
			<output>
				<port id="0" precision="I64" />
			</output>
		</layer>
		<layer id="138" name="/encoder/layers/encoder_layer_0/self_attention/Gather_4" type="Gather" version="opset8">
			<data batch_dims="0" />
			<input>
				<port id="0" precision="FP32">
					<dim>3</dim>
					<dim>197</dim>
					<dim>1</dim>
					<dim>768</dim>
				</port>
				<port id="1" precision="I64" />
				<port id="2" precision="I64" />
			</input>
			<output>
				<port id="3" precision="FP32" names="/encoder/layers/encoder_layer_0/self_attention/Gather_4_output_0">
					<dim>197</dim>
					<dim>1</dim>
					<dim>768</dim>
				</port>
			</output>
		</layer>
		<layer id="139" name="/encoder/layers/encoder_layer_0/self_attention/Constant_20" type="Const" version="opset1">
			<data element_type="i64" shape="1" offset="10165476" size="8" />
			<output>
				<port id="0" precision="I64" names="/encoder/layers/encoder_layer_0/self_attention/Constant_20_output_0">
					<dim>1</dim>
				</port>
			</output>
		</layer>
		<layer id="140" name="/encoder/layers/encoder_layer_0/self_attention/Concat_4" type="Concat" version="opset1">
			<data axis="0" />
			<input>
				<port id="0" precision="I64">
					<dim>1</dim>
				</port>
				<port id="1" precision="I64">
					<dim>1</dim>
				</port>
				<port id="2" precision="I64">
					<dim>1</dim>
				</port>
			</input>
			<output>
				<port id="3" precision="I64" names="/encoder/layers/encoder_layer_0/self_attention/Concat_3_output_0,/encoder/layers/encoder_layer_0/self_attention/Concat_4_output_0">
					<dim>3</dim>
				</port>
			</output>
		</layer>
		<layer id="141" name="/encoder/layers/encoder_layer_0/self_attention/Reshape_4" type="Reshape" version="opset1">
			<data special_zero="true" />
			<input>
				<port id="0" precision="FP32">
					<dim>197</dim>
					<dim>1</dim>
					<dim>768</dim>
				</port>
				<port id="1" precision="I64">
					<dim>3</dim>
				</port>
			</input>
			<output>
				<port id="2" precision="FP32" names="/encoder/layers/encoder_layer_0/self_attention/Reshape_4_output_0">
					<dim>197</dim>
					<dim>12</dim>
					<dim>64</dim>
				</port>
			</output>
		</layer>
		<layer id="142" name="Constant_594" type="Const" version="opset1">
			<data element_type="i64" shape="3" offset="3087504" size="24" />
			<output>
				<port id="0" precision="I64">
					<dim>3</dim>
				</port>
			</output>
		</layer>
		<layer id="143" name="/encoder/layers/encoder_layer_0/self_attention/Transpose_3" type="Transpose" version="opset1">
			<input>
				<port id="0" precision="FP32">
					<dim>197</dim>
					<dim>12</dim>
					<dim>64</dim>
				</port>
				<port id="1" precision="I64">
					<dim>3</dim>
				</port>
			</input>
			<output>
				<port id="2" precision="FP32" names="/encoder/layers/encoder_layer_0/self_attention/Transpose_3_output_0">
					<dim>12</dim>
					<dim>197</dim>
					<dim>64</dim>
				</port>
			</output>
		</layer>
		<layer id="144" name="/encoder/layers/encoder_layer_0/self_attention/Constant_24" type="Const" version="opset1">
			<data element_type="i64" shape="1" offset="10165464" size="8" />
			<output>
				<port id="0" precision="I64" names="/encoder/layers/encoder_layer_0/self_attention/Constant_24_output_0">
					<dim>1</dim>
				</port>
			</output>
		</layer>
		<layer id="145" name="/encoder/layers/encoder_layer_0/self_attention/Shape_5" type="ShapeOf" version="opset3">
			<data output_type="i64" />
			<input>
				<port id="0" precision="FP32">
					<dim>12</dim>
					<dim>197</dim>
					<dim>64</dim>
				</port>
			</input>
			<output>
				<port id="1" precision="I64" names="/encoder/layers/encoder_layer_0/self_attention/Shape_5_output_0">
					<dim>3</dim>
				</port>
			</output>
		</layer>
		<layer id="146" name="Constant_45165" type="Const" version="opset1">
			<data element_type="i64" shape="1" offset="10165416" size="8" />
			<output>
				<port id="0" precision="I64">
					<dim>1</dim>
				</port>
			</output>
		</layer>
		<layer id="147" name="Constant_663" type="Const" version="opset1">
			<data element_type="i64" shape="" offset="2476056" size="8" />
			<output>
				<port id="0" precision="I64" />
			</output>
		</layer>
		<layer id="148" name="/encoder/layers/encoder_layer_0/self_attention/Gather_6" type="Gather" version="opset8">
			<data batch_dims="0" />
			<input>
				<port id="0" precision="I64">
					<dim>3</dim>
				</port>
				<port id="1" precision="I64">
					<dim>1</dim>
				</port>
				<port id="2" precision="I64" />
			</input>
			<output>
				<port id="3" precision="I64" names="/encoder/layers/encoder_layer_0/self_attention/Gather_6_output_0,/encoder/layers/encoder_layer_0/self_attention/Unsqueeze_13_output_0,/encoder/layers/encoder_layer_0/self_attention/Unsqueeze_16_output_0">
					<dim>1</dim>
				</port>
			</output>
		</layer>
		<layer id="149" name="/encoder/layers/encoder_layer_0/self_attention/Concat_7" type="Concat" version="opset1">
			<data axis="0" />
			<input>
				<port id="0" precision="I64">
					<dim>1</dim>
				</port>
				<port id="1" precision="I64">
					<dim>1</dim>
				</port>
				<port id="2" precision="I64">
					<dim>1</dim>
				</port>
				<port id="3" precision="I64">
					<dim>1</dim>
				</port>
			</input>
			<output>
				<port id="4" precision="I64" names="/encoder/layers/encoder_layer_0/self_attention/Concat_6_output_0,/encoder/layers/encoder_layer_0/self_attention/Concat_7_output_0">
					<dim>4</dim>
				</port>
			</output>
		</layer>
		<layer id="150" name="/encoder/layers/encoder_layer_0/self_attention/Reshape_7" type="Reshape" version="opset1">
			<data special_zero="true" />
			<input>
				<port id="0" precision="FP32">
					<dim>12</dim>
					<dim>197</dim>
					<dim>64</dim>
				</port>
				<port id="1" precision="I64">
					<dim>4</dim>
				</port>
			</input>
			<output>
				<port id="2" precision="FP32" names="/encoder/layers/encoder_layer_0/self_attention/Reshape_7_output_0">
					<dim>1</dim>
					<dim>12</dim>
					<dim>197</dim>
					<dim>64</dim>
				</port>
			</output>
		</layer>
		<layer id="151" name="Constant_876_2" type="Const" version="opset1">
			<data element_type="i64" shape="4" offset="10165484" size="32" />
			<output>
				<port id="0" precision="I64">
					<dim>4</dim>
				</port>
			</output>
		</layer>
		<layer id="152" name="/encoder/layers/encoder_layer_0/self_attention/Transpose_5" type="Transpose" version="opset1">
			<input>
				<port id="0" precision="FP32">
					<dim>1</dim>
					<dim>12</dim>
					<dim>197</dim>
					<dim>64</dim>
				</port>
				<port id="1" precision="I64">
					<dim>4</dim>
				</port>
			</input>
			<output>
				<port id="2" precision="FP32" names="/encoder/layers/encoder_layer_0/self_attention/Transpose_5_output_0">
					<dim>1</dim>
					<dim>12</dim>
					<dim>64</dim>
					<dim>197</dim>
				</port>
			</output>
		</layer>
		<layer id="153" name="/encoder/layers/encoder_layer_0/self_attention/Sqrt_2" type="Sqrt" version="opset1">
			<input>
				<port id="0" precision="FP32">
					<dim>1</dim>
				</port>
			</input>
			<output>
				<port id="1" precision="FP32" names="/encoder/layers/encoder_layer_0/self_attention/Sqrt_2_output_0">
					<dim>1</dim>
				</port>
			</output>
		</layer>
		<layer id="154" name="/encoder/layers/encoder_layer_0/self_attention/Mul_2" type="Multiply" version="opset1">
			<data auto_broadcast="numpy" />
			<input>
				<port id="0" precision="FP32">
					<dim>1</dim>
					<dim>12</dim>
					<dim>64</dim>
					<dim>197</dim>
				</port>
				<port id="1" precision="FP32">
					<dim>1</dim>
				</port>
			</input>
			<output>
				<port id="2" precision="FP32" names="/encoder/layers/encoder_layer_0/self_attention/Mul_2_output_0">
					<dim>1</dim>
					<dim>12</dim>
					<dim>64</dim>
					<dim>197</dim>
				</port>
			</output>
		</layer>
		<layer id="155" name="/encoder/layers/encoder_layer_0/self_attention/MatMul_1" type="MatMul" version="opset1">
			<data transpose_a="false" transpose_b="false" />
			<input>
				<port id="0" precision="FP32">
					<dim>1</dim>
					<dim>12</dim>
					<dim>197</dim>
					<dim>64</dim>
				</port>
				<port id="1" precision="FP32">
					<dim>1</dim>
					<dim>12</dim>
					<dim>64</dim>
					<dim>197</dim>
				</port>
			</input>
			<output>
				<port id="2" precision="FP32" names="/encoder/layers/encoder_layer_0/self_attention/MatMul_1_output_0">
					<dim>1</dim>
					<dim>12</dim>
					<dim>197</dim>
					<dim>197</dim>
				</port>
			</output>
		</layer>
		<layer id="156" name="/encoder/layers/encoder_layer_0/self_attention/Softmax" type="SoftMax" version="opset8">
			<data axis="-1" />
			<input>
				<port id="0" precision="FP32">
					<dim>1</dim>
					<dim>12</dim>
					<dim>197</dim>
					<dim>197</dim>
				</port>
			</input>
			<output>
				<port id="1" precision="FP32" names="/encoder/layers/encoder_layer_0/self_attention/Softmax_output_0">
					<dim>1</dim>
					<dim>12</dim>
					<dim>197</dim>
					<dim>197</dim>
				</port>
			</output>
		</layer>
		<layer id="157" name="/Constant_2" type="Const" version="opset1">
			<data element_type="i64" shape="" offset="2476072" size="8" />
			<output>
				<port id="0" precision="I64" names="/Constant_2_output_0" />
			</output>
		</layer>
		<layer id="158" name="Constant_461" type="Const" version="opset1">
			<data element_type="i64" shape="" offset="2476056" size="8" />
			<output>
				<port id="0" precision="I64" />
			</output>
		</layer>
		<layer id="159" name="/encoder/layers/encoder_layer_0/self_attention/Gather_5" type="Gather" version="opset8">
			<data batch_dims="0" />
			<input>
				<port id="0" precision="FP32">
					<dim>3</dim>
					<dim>197</dim>
					<dim>1</dim>
					<dim>768</dim>
				</port>
				<port id="1" precision="I64" />
				<port id="2" precision="I64" />
			</input>
			<output>
				<port id="3" precision="FP32" names="/encoder/layers/encoder_layer_0/self_attention/Gather_5_output_0">
					<dim>197</dim>
					<dim>1</dim>
					<dim>768</dim>
				</port>
			</output>
		</layer>
		<layer id="160" name="/encoder/layers/encoder_layer_0/self_attention/Reshape_5" type="Reshape" version="opset1">
			<data special_zero="true" />
			<input>
				<port id="0" precision="FP32">
					<dim>197</dim>
					<dim>1</dim>
					<dim>768</dim>
				</port>
				<port id="1" precision="I64">
					<dim>3</dim>
				</port>
			</input>
			<output>
				<port id="2" precision="FP32" names="/encoder/layers/encoder_layer_0/self_attention/Reshape_5_output_0">
					<dim>197</dim>
					<dim>12</dim>
					<dim>64</dim>
				</port>
			</output>
		</layer>
		<layer id="161" name="Constant_659" type="Const" version="opset1">
			<data element_type="i64" shape="3" offset="3087504" size="24" />
			<output>
				<port id="0" precision="I64">
					<dim>3</dim>
				</port>
			</output>
		</layer>
		<layer id="162" name="/encoder/layers/encoder_layer_0/self_attention/Transpose_4" type="Transpose" version="opset1">
			<input>
				<port id="0" precision="FP32">
					<dim>197</dim>
					<dim>12</dim>
					<dim>64</dim>
				</port>
				<port id="1" precision="I64">
					<dim>3</dim>
				</port>
			</input>
			<output>
				<port id="2" precision="FP32" names="/encoder/layers/encoder_layer_0/self_attention/Transpose_4_output_0">
					<dim>12</dim>
					<dim>197</dim>
					<dim>64</dim>
				</port>
			</output>
		</layer>
		<layer id="163" name="/encoder/layers/encoder_layer_0/self_attention/Reshape_8" type="Reshape" version="opset1">
			<data special_zero="true" />
			<input>
				<port id="0" precision="FP32">
					<dim>12</dim>
					<dim>197</dim>
					<dim>64</dim>
				</port>
				<port id="1" precision="I64">
					<dim>4</dim>
				</port>
			</input>
			<output>
				<port id="2" precision="FP32" names="/encoder/layers/encoder_layer_0/self_attention/Reshape_8_output_0">
					<dim>1</dim>
					<dim>12</dim>
					<dim>197</dim>
					<dim>64</dim>
				</port>
			</output>
		</layer>
		<layer id="164" name="/encoder/layers/encoder_layer_0/self_attention/MatMul_2" type="MatMul" version="opset1">
			<data transpose_a="false" transpose_b="false" />
			<input>
				<port id="0" precision="FP32">
					<dim>1</dim>
					<dim>12</dim>
					<dim>197</dim>
					<dim>197</dim>
				</port>
				<port id="1" precision="FP32">
					<dim>1</dim>
					<dim>12</dim>
					<dim>197</dim>
					<dim>64</dim>
				</port>
			</input>
			<output>
				<port id="2" precision="FP32" names="/encoder/layers/encoder_layer_0/self_attention/MatMul_2_output_0">
					<dim>1</dim>
					<dim>12</dim>
					<dim>197</dim>
					<dim>64</dim>
				</port>
			</output>
		</layer>
		<layer id="165" name="Constant_885" type="Const" version="opset1">
			<data element_type="i64" shape="4" offset="10165432" size="32" />
			<output>
				<port id="0" precision="I64">
					<dim>4</dim>
				</port>
			</output>
		</layer>
		<layer id="166" name="/encoder/layers/encoder_layer_0/self_attention/Transpose_6" type="Transpose" version="opset1">
			<input>
				<port id="0" precision="FP32">
					<dim>1</dim>
					<dim>12</dim>
					<dim>197</dim>
					<dim>64</dim>
				</port>
				<port id="1" precision="I64">
					<dim>4</dim>
				</port>
			</input>
			<output>
				<port id="2" precision="FP32" names="/encoder/layers/encoder_layer_0/self_attention/Transpose_6_output_0">
					<dim>197</dim>
					<dim>1</dim>
					<dim>12</dim>
					<dim>64</dim>
				</port>
			</output>
		</layer>
		<layer id="167" name="/encoder/layers/encoder_layer_0/self_attention/Concat_8" type="Const" version="opset1">
			<data element_type="i64" shape="2" offset="10165516" size="16" />
			<output>
				<port id="0" precision="I64" names="/encoder/layers/encoder_layer_0/self_attention/Concat_8_output_0">
					<dim>2</dim>
				</port>
			</output>
		</layer>
		<layer id="168" name="/encoder/layers/encoder_layer_0/self_attention/Reshape_9" type="Reshape" version="opset1">
			<data special_zero="true" />
			<input>
				<port id="0" precision="FP32">
					<dim>197</dim>
					<dim>1</dim>
					<dim>12</dim>
					<dim>64</dim>
				</port>
				<port id="1" precision="I64">
					<dim>2</dim>
				</port>
			</input>
			<output>
				<port id="2" precision="FP32" names="/encoder/layers/encoder_layer_0/self_attention/Reshape_9_output_0">
					<dim>197</dim>
					<dim>768</dim>
				</port>
			</output>
		</layer>
		<layer id="169" name="encoder.layers.encoder_layer_0.self_attention.out_proj.weight" type="Const" version="opset1">
			<data element_type="f32" shape="768, 768" offset="10165532" size="2359296" />
			<output>
				<port id="0" precision="FP32" names="encoder.layers.encoder_layer_0.self_attention.out_proj.weight">
					<dim>768</dim>
					<dim>768</dim>
				</port>
			</output>
		</layer>
		<layer id="170" name="/encoder/layers/encoder_layer_0/self_attention/Gemm/WithoutBiases" type="MatMul" version="opset1">
			<data transpose_a="false" transpose_b="true" />
			<input>
				<port id="0" precision="FP32">
					<dim>197</dim>
					<dim>768</dim>
				</port>
				<port id="1" precision="FP32">
					<dim>768</dim>
					<dim>768</dim>
				</port>
			</input>
			<output>
				<port id="2" precision="FP32">
					<dim>197</dim>
					<dim>768</dim>
				</port>
			</output>
		</layer>
		<layer id="171" name="Constant_51601" type="Const" version="opset1">
			<data element_type="f32" shape="1, 768" offset="12524828" size="3072" />
			<output>
				<port id="0" precision="FP32">
					<dim>1</dim>
					<dim>768</dim>
				</port>
			</output>
		</layer>
		<layer id="172" name="/encoder/layers/encoder_layer_0/self_attention/Gemm" type="Add" version="opset1">
			<data auto_broadcast="numpy" />
			<input>
				<port id="0" precision="FP32">
					<dim>197</dim>
					<dim>768</dim>
				</port>
				<port id="1" precision="FP32">
					<dim>1</dim>
					<dim>768</dim>
				</port>
			</input>
			<output>
				<port id="2" precision="FP32" names="/encoder/layers/encoder_layer_0/self_attention/Gemm_output_0">
					<dim>197</dim>
					<dim>768</dim>
				</port>
			</output>
		</layer>
		<layer id="173" name="/encoder/layers/encoder_layer_0/self_attention/Shape_7" type="ShapeOf" version="opset3">
			<data output_type="i64" />
			<input>
				<port id="0" precision="FP32">
					<dim>197</dim>
					<dim>768</dim>
				</port>
			</input>
			<output>
				<port id="1" precision="I64" names="/encoder/layers/encoder_layer_0/self_attention/Shape_7_output_0">
					<dim>2</dim>
				</port>
			</output>
		</layer>
		<layer id="174" name="Constant_45170" type="Const" version="opset1">
			<data element_type="i64" shape="1" offset="10165416" size="8" />
			<output>
				<port id="0" precision="I64">
					<dim>1</dim>
				</port>
			</output>
		</layer>
		<layer id="175" name="Constant_904_2" type="Const" version="opset1">
			<data element_type="i64" shape="" offset="2476056" size="8" />
			<output>
				<port id="0" precision="I64" />
			</output>
		</layer>
		<layer id="176" name="/encoder/layers/encoder_layer_0/self_attention/Gather_7" type="Gather" version="opset8">
			<data batch_dims="0" />
			<input>
				<port id="0" precision="I64">
					<dim>2</dim>
				</port>
				<port id="1" precision="I64">
					<dim>1</dim>
				</port>
				<port id="2" precision="I64" />
			</input>
			<output>
				<port id="3" precision="I64" names="/encoder/layers/encoder_layer_0/self_attention/Gather_7_output_0,/encoder/layers/encoder_layer_0/self_attention/Unsqueeze_22_output_0">
					<dim>1</dim>
				</port>
			</output>
		</layer>
		<layer id="177" name="/encoder/layers/encoder_layer_0/self_attention/Concat_9" type="Concat" version="opset1">
			<data axis="0" />
			<input>
				<port id="0" precision="I64">
					<dim>1</dim>
				</port>
				<port id="1" precision="I64">
					<dim>1</dim>
				</port>
				<port id="2" precision="I64">
					<dim>1</dim>
				</port>
			</input>
			<output>
				<port id="3" precision="I64" names="/encoder/layers/encoder_layer_0/self_attention/Concat_9_output_0">
					<dim>3</dim>
				</port>
			</output>
		</layer>
		<layer id="178" name="/encoder/layers/encoder_layer_0/self_attention/Reshape_10" type="Reshape" version="opset1">
			<data special_zero="true" />
			<input>
				<port id="0" precision="FP32">
					<dim>197</dim>
					<dim>768</dim>
				</port>
				<port id="1" precision="I64">
					<dim>3</dim>
				</port>
			</input>
			<output>
				<port id="2" precision="FP32" names="/encoder/layers/encoder_layer_0/self_attention/Reshape_10_output_0">
					<dim>197</dim>
					<dim>1</dim>
					<dim>768</dim>
				</port>
			</output>
		</layer>
		<layer id="179" name="Constant_916_2" type="Const" version="opset1">
			<data element_type="i64" shape="3" offset="3087504" size="24" />
			<output>
				<port id="0" precision="I64">
					<dim>3</dim>
				</port>
			</output>
		</layer>
		<layer id="180" name="/encoder/layers/encoder_layer_0/self_attention/Transpose_7" type="Transpose" version="opset1">
			<input>
				<port id="0" precision="FP32">
					<dim>197</dim>
					<dim>1</dim>
					<dim>768</dim>
				</port>
				<port id="1" precision="I64">
					<dim>3</dim>
				</port>
			</input>
			<output>
				<port id="2" precision="FP32" names="/encoder/layers/encoder_layer_0/self_attention/Transpose_7_output_0">
					<dim>1</dim>
					<dim>197</dim>
					<dim>768</dim>
				</port>
			</output>
		</layer>
		<layer id="181" name="/encoder/layers/encoder_layer_0/Add" type="Add" version="opset1">
			<data auto_broadcast="numpy" />
			<input>
				<port id="0" precision="FP32">
					<dim>1</dim>
					<dim>197</dim>
					<dim>768</dim>
				</port>
				<port id="1" precision="FP32">
					<dim>1</dim>
					<dim>197</dim>
					<dim>768</dim>
				</port>
			</input>
			<output>
				<port id="2" precision="FP32" names="/encoder/layers/encoder_layer_0/Add_output_0">
					<dim>1</dim>
					<dim>197</dim>
					<dim>768</dim>
				</port>
			</output>
		</layer>
		<layer id="182" name="Constant_51605" type="Const" version="opset1">
			<data element_type="f32" shape="1, 1, 768" offset="12527900" size="3072" />
			<output>
				<port id="0" precision="FP32">
					<dim>1</dim>
					<dim>1</dim>
					<dim>768</dim>
				</port>
			</output>
		</layer>
		<layer id="183" name="Constant_51604" type="Const" version="opset1">
			<data element_type="f32" shape="1, 1, 3072" offset="12530972" size="12288" />
			<output>
				<port id="0" precision="FP32">
					<dim>1</dim>
					<dim>1</dim>
					<dim>3072</dim>
				</port>
			</output>
		</layer>
		<layer id="184" name="Constant_919" type="Const" version="opset1">
			<data element_type="i64" shape="1" offset="2476120" size="8" />
			<output>
				<port id="0" precision="I64">
					<dim>1</dim>
				</port>
			</output>
		</layer>
		<layer id="185" name="/encoder/layers/encoder_layer_0/ln_2/Div" type="MVN" version="opset6">
			<data eps="9.9999999747524271e-07" normalize_variance="true" eps_mode="INSIDE_SQRT" />
			<input>
				<port id="0" precision="FP32">
					<dim>1</dim>
					<dim>197</dim>
					<dim>768</dim>
				</port>
				<port id="1" precision="I64">
					<dim>1</dim>
				</port>
			</input>
			<output>
				<port id="2" precision="FP32" names="/encoder/layers/encoder_layer_0/ln_2/Div_output_0">
					<dim>1</dim>
					<dim>197</dim>
					<dim>768</dim>
				</port>
			</output>
		</layer>
		<layer id="186" name="Constant_51602" type="Const" version="opset1">
			<data element_type="f32" shape="1, 1, 768" offset="12543260" size="3072" />
			<output>
				<port id="0" precision="FP32">
					<dim>1</dim>
					<dim>1</dim>
					<dim>768</dim>
				</port>
			</output>
		</layer>
		<layer id="187" name="/encoder/layers/encoder_layer_0/ln_2/Mul" type="Multiply" version="opset1">
			<data auto_broadcast="numpy" />
			<input>
				<port id="0" precision="FP32">
					<dim>1</dim>
					<dim>197</dim>
					<dim>768</dim>
				</port>
				<port id="1" precision="FP32">
					<dim>1</dim>
					<dim>1</dim>
					<dim>768</dim>
				</port>
			</input>
			<output>
				<port id="2" precision="FP32" names="/encoder/layers/encoder_layer_0/ln_2/Mul_output_0">
					<dim>1</dim>
					<dim>197</dim>
					<dim>768</dim>
				</port>
			</output>
		</layer>
		<layer id="188" name="Constant_51603" type="Const" version="opset1">
			<data element_type="f32" shape="1, 1, 768" offset="12546332" size="3072" />
			<output>
				<port id="0" precision="FP32">
					<dim>1</dim>
					<dim>1</dim>
					<dim>768</dim>
				</port>
			</output>
		</layer>
		<layer id="189" name="/encoder/layers/encoder_layer_0/ln_2/Add_1" type="Add" version="opset1">
			<data auto_broadcast="numpy" />
			<input>
				<port id="0" precision="FP32">
					<dim>1</dim>
					<dim>197</dim>
					<dim>768</dim>
				</port>
				<port id="1" precision="FP32">
					<dim>1</dim>
					<dim>1</dim>
					<dim>768</dim>
				</port>
			</input>
			<output>
				<port id="2" precision="FP32" names="/encoder/layers/encoder_layer_0/ln_2/Add_1_output_0">
					<dim>1</dim>
					<dim>197</dim>
					<dim>768</dim>
				</port>
			</output>
		</layer>
		<layer id="190" name="Transpose_50726" type="Const" version="opset1">
			<data element_type="f32" shape="3072, 768" offset="12549404" size="9437184" />
			<output>
				<port id="0" precision="FP32">
					<dim>3072</dim>
					<dim>768</dim>
				</port>
			</output>
		</layer>
		<layer id="191" name="/encoder/layers/encoder_layer_0/mlp/mlp.0/MatMul" type="MatMul" version="opset1">
			<data transpose_a="false" transpose_b="true" />
			<input>
				<port id="0" precision="FP32">
					<dim>1</dim>
					<dim>197</dim>
					<dim>768</dim>
				</port>
				<port id="1" precision="FP32">
					<dim>3072</dim>
					<dim>768</dim>
				</port>
			</input>
			<output>
				<port id="2" precision="FP32" names="/encoder/layers/encoder_layer_0/mlp/mlp.0/MatMul_output_0">
					<dim>1</dim>
					<dim>197</dim>
					<dim>3072</dim>
				</port>
			</output>
		</layer>
		<layer id="192" name="/encoder/layers/encoder_layer_0/mlp/mlp.0/Add" type="Add" version="opset1">
			<data auto_broadcast="numpy" />
			<input>
				<port id="0" precision="FP32">
					<dim>1</dim>
					<dim>1</dim>
					<dim>3072</dim>
				</port>
				<port id="1" precision="FP32">
					<dim>1</dim>
					<dim>197</dim>
					<dim>3072</dim>
				</port>
			</input>
			<output>
				<port id="2" precision="FP32" names="/encoder/layers/encoder_layer_0/mlp/mlp.0/Add_output_0">
					<dim>1</dim>
					<dim>197</dim>
					<dim>3072</dim>
				</port>
			</output>
		</layer>
		<layer id="193" name="/encoder/layers/encoder_layer_0/mlp/mlp.1/Mul_1" type="Gelu" version="opset7">
			<data approximation_mode="ERF" />
			<input>
				<port id="0" precision="FP32">
					<dim>1</dim>
					<dim>197</dim>
					<dim>3072</dim>
				</port>
			</input>
			<output>
				<port id="1" precision="FP32" names="/encoder/layers/encoder_layer_0/mlp/mlp.1/Mul_1_output_0">
					<dim>1</dim>
					<dim>197</dim>
					<dim>3072</dim>
				</port>
			</output>
		</layer>
		<layer id="194" name="Transpose_50730" type="Const" version="opset1">
			<data element_type="f32" shape="768, 3072" offset="21986588" size="9437184" />
			<output>
				<port id="0" precision="FP32">
					<dim>768</dim>
					<dim>3072</dim>
				</port>
			</output>
		</layer>
		<layer id="195" name="/encoder/layers/encoder_layer_0/mlp/mlp.3/MatMul" type="MatMul" version="opset1">
			<data transpose_a="false" transpose_b="true" />
			<input>
				<port id="0" precision="FP32">
					<dim>1</dim>
					<dim>197</dim>
					<dim>3072</dim>
				</port>
				<port id="1" precision="FP32">
					<dim>768</dim>
					<dim>3072</dim>
				</port>
			</input>
			<output>
				<port id="2" precision="FP32" names="/encoder/layers/encoder_layer_0/mlp/mlp.3/MatMul_output_0">
					<dim>1</dim>
					<dim>197</dim>
					<dim>768</dim>
				</port>
			</output>
		</layer>
		<layer id="196" name="/encoder/layers/encoder_layer_0/mlp/mlp.3/Add" type="Add" version="opset1">
			<data auto_broadcast="numpy" />
			<input>
				<port id="0" precision="FP32">
					<dim>1</dim>
					<dim>1</dim>
					<dim>768</dim>
				</port>
				<port id="1" precision="FP32">
					<dim>1</dim>
					<dim>197</dim>
					<dim>768</dim>
				</port>
			</input>
			<output>
				<port id="2" precision="FP32" names="/encoder/layers/encoder_layer_0/mlp/mlp.3/Add_output_0">
					<dim>1</dim>
					<dim>197</dim>
					<dim>768</dim>
				</port>
			</output>
		</layer>
		<layer id="197" name="/encoder/layers/encoder_layer_0/Add_1" type="Add" version="opset1">
			<data auto_broadcast="numpy" />
			<input>
				<port id="0" precision="FP32">
					<dim>1</dim>
					<dim>197</dim>
					<dim>768</dim>
				</port>
				<port id="1" precision="FP32">
					<dim>1</dim>
					<dim>197</dim>
					<dim>768</dim>
				</port>
			</input>
			<output>
				<port id="2" precision="FP32" names="/encoder/layers/encoder_layer_0/Add_1_output_0">
					<dim>1</dim>
					<dim>197</dim>
					<dim>768</dim>
				</port>
			</output>
		</layer>
		<layer id="198" name="Constant_945" type="Const" version="opset1">
			<data element_type="i64" shape="1" offset="2476120" size="8" />
			<output>
				<port id="0" precision="I64">
					<dim>1</dim>
				</port>
			</output>
		</layer>
		<layer id="199" name="/encoder/layers/encoder_layer_1/ln_1/Div" type="MVN" version="opset6">
			<data eps="9.9999999747524271e-07" normalize_variance="true" eps_mode="INSIDE_SQRT" />
			<input>
				<port id="0" precision="FP32">
					<dim>1</dim>
					<dim>197</dim>
					<dim>768</dim>
				</port>
				<port id="1" precision="I64">
					<dim>1</dim>
				</port>
			</input>
			<output>
				<port id="2" precision="FP32" names="/encoder/layers/encoder_layer_1/ln_1/Div_output_0">
					<dim>1</dim>
					<dim>197</dim>
					<dim>768</dim>
				</port>
			</output>
		</layer>
		<layer id="200" name="Constant_51606" type="Const" version="opset1">
			<data element_type="f32" shape="1, 1, 768" offset="31423772" size="3072" />
			<output>
				<port id="0" precision="FP32">
					<dim>1</dim>
					<dim>1</dim>
					<dim>768</dim>
				</port>
			</output>
		</layer>
		<layer id="201" name="/encoder/layers/encoder_layer_1/ln_1/Mul" type="Multiply" version="opset1">
			<data auto_broadcast="numpy" />
			<input>
				<port id="0" precision="FP32">
					<dim>1</dim>
					<dim>197</dim>
					<dim>768</dim>
				</port>
				<port id="1" precision="FP32">
					<dim>1</dim>
					<dim>1</dim>
					<dim>768</dim>
				</port>
			</input>
			<output>
				<port id="2" precision="FP32" names="/encoder/layers/encoder_layer_1/ln_1/Mul_output_0">
					<dim>1</dim>
					<dim>197</dim>
					<dim>768</dim>
				</port>
			</output>
		</layer>
		<layer id="202" name="Constant_51607" type="Const" version="opset1">
			<data element_type="f32" shape="1, 1, 768" offset="31426844" size="3072" />
			<output>
				<port id="0" precision="FP32">
					<dim>1</dim>
					<dim>1</dim>
					<dim>768</dim>
				</port>
			</output>
		</layer>
		<layer id="203" name="/encoder/layers/encoder_layer_1/ln_1/Add_1" type="Add" version="opset1">
			<data auto_broadcast="numpy" />
			<input>
				<port id="0" precision="FP32">
					<dim>1</dim>
					<dim>197</dim>
					<dim>768</dim>
				</port>
				<port id="1" precision="FP32">
					<dim>1</dim>
					<dim>1</dim>
					<dim>768</dim>
				</port>
			</input>
			<output>
				<port id="2" precision="FP32" names="/encoder/layers/encoder_layer_1/ln_1/Add_1_output_0">
					<dim>1</dim>
					<dim>197</dim>
					<dim>768</dim>
				</port>
			</output>
		</layer>
		<layer id="204" name="Constant_958" type="Const" version="opset1">
			<data element_type="i64" shape="3" offset="3087504" size="24" />
			<output>
				<port id="0" precision="I64">
					<dim>3</dim>
				</port>
			</output>
		</layer>
		<layer id="205" name="/encoder/layers/encoder_layer_1/self_attention/Transpose" type="Transpose" version="opset1">
			<input>
				<port id="0" precision="FP32">
					<dim>1</dim>
					<dim>197</dim>
					<dim>768</dim>
				</port>
				<port id="1" precision="I64">
					<dim>3</dim>
				</port>
			</input>
			<output>
				<port id="2" precision="FP32" names="/encoder/layers/encoder_layer_1/self_attention/Transpose_output_0">
					<dim>197</dim>
					<dim>1</dim>
					<dim>768</dim>
				</port>
			</output>
		</layer>
		<layer id="206" name="Transpose_50734" type="Const" version="opset1">
			<data element_type="f32" shape="2304, 768" offset="31429916" size="7077888" />
			<output>
				<port id="0" precision="FP32">
					<dim>2304</dim>
					<dim>768</dim>
				</port>
			</output>
		</layer>
		<layer id="207" name="/encoder/layers/encoder_layer_1/self_attention/MatMul" type="MatMul" version="opset1">
			<data transpose_a="false" transpose_b="true" />
			<input>
				<port id="0" precision="FP32">
					<dim>197</dim>
					<dim>1</dim>
					<dim>768</dim>
				</port>
				<port id="1" precision="FP32">
					<dim>2304</dim>
					<dim>768</dim>
				</port>
			</input>
			<output>
				<port id="2" precision="FP32" names="/encoder/layers/encoder_layer_1/self_attention/MatMul_output_0">
					<dim>197</dim>
					<dim>1</dim>
					<dim>2304</dim>
				</port>
			</output>
		</layer>
		<layer id="208" name="/encoder/layers/encoder_layer_1/self_attention/Add" type="Add" version="opset1">
			<data auto_broadcast="numpy" />
			<input>
				<port id="0" precision="FP32">
					<dim>1</dim>
					<dim>1</dim>
					<dim>2304</dim>
				</port>
				<port id="1" precision="FP32">
					<dim>197</dim>
					<dim>1</dim>
					<dim>2304</dim>
				</port>
			</input>
			<output>
				<port id="2" precision="FP32" names="/encoder/layers/encoder_layer_1/self_attention/Add_output_0">
					<dim>197</dim>
					<dim>1</dim>
					<dim>2304</dim>
				</port>
			</output>
		</layer>
		<layer id="209" name="/encoder/layers/encoder_layer_1/self_attention/Shape_4" type="ShapeOf" version="opset3">
			<data output_type="i64" />
			<input>
				<port id="0" precision="FP32">
					<dim>197</dim>
					<dim>1</dim>
					<dim>2304</dim>
				</port>
			</input>
			<output>
				<port id="1" precision="I64" names="/encoder/layers/encoder_layer_1/self_attention/Shape_4_output_0">
					<dim>3</dim>
				</port>
			</output>
		</layer>
		<layer id="210" name="/encoder/layers/encoder_layer_1/self_attention/Constant_11" type="Const" version="opset1">
			<data element_type="i64" shape="1" offset="2476056" size="8" />
			<output>
				<port id="0" precision="I64" names="/encoder/layers/encoder_layer_1/self_attention/Constant_11_output_0">
					<dim>1</dim>
				</port>
			</output>
		</layer>
		<layer id="211" name="/encoder/layers/encoder_layer_1/self_attention/Reshape" type="Const" version="opset1">
			<data element_type="i64" shape="1" offset="2476072" size="8" />
			<output>
				<port id="0" precision="I64" names="/encoder/layers/encoder_layer_1/self_attention/Reshape_output_0">
					<dim>1</dim>
				</port>
			</output>
		</layer>
		<layer id="212" name="Broadcast_1006" type="Const" version="opset1">
			<data element_type="i64" shape="1" offset="10165416" size="8" />
			<output>
				<port id="0" precision="I64">
					<dim>1</dim>
				</port>
			</output>
		</layer>
		<layer id="213" name="/encoder/layers/encoder_layer_1/self_attention/Slice_1" type="StridedSlice" version="opset1">
			<data begin_mask="0" end_mask="0" new_axis_mask="" shrink_axis_mask="" ellipsis_mask="" />
			<input>
				<port id="0" precision="I64">
					<dim>3</dim>
				</port>
				<port id="1" precision="I64">
					<dim>1</dim>
				</port>
				<port id="2" precision="I64">
					<dim>1</dim>
				</port>
				<port id="3" precision="I64">
					<dim>1</dim>
				</port>
			</input>
			<output>
				<port id="4" precision="I64" names="/encoder/layers/encoder_layer_1/self_attention/Slice_1_output_0">
					<dim>2</dim>
				</port>
			</output>
		</layer>
		<layer id="214" name="/encoder/layers/encoder_layer_1/self_attention/Constant_8" type="Const" version="opset1">
			<data element_type="i64" shape="1" offset="2476088" size="8" />
			<output>
				<port id="0" precision="I64" names="/encoder/layers/encoder_layer_1/self_attention/Constant_8_output_0">
					<dim>1</dim>
				</port>
			</output>
		</layer>
		<layer id="215" name="/encoder/layers/encoder_layer_1/self_attention/Shape_1" type="ShapeOf" version="opset3">
			<data output_type="i64" />
			<input>
				<port id="0" precision="FP32">
					<dim>197</dim>
					<dim>1</dim>
					<dim>768</dim>
				</port>
			</input>
			<output>
				<port id="1" precision="I64" names="/encoder/layers/encoder_layer_1/self_attention/Shape_1_output_0,/encoder/layers/encoder_layer_1/self_attention/Shape_2_output_0,/encoder/layers/encoder_layer_1/self_attention/Shape_3_output_0,/encoder/layers/encoder_layer_1/self_attention/Shape_output_0">
					<dim>3</dim>
				</port>
			</output>
		</layer>
		<layer id="216" name="/encoder/layers/encoder_layer_1/self_attention/Constant_5" type="Const" version="opset1">
			<data element_type="i64" shape="1" offset="2476120" size="8" />
			<output>
				<port id="0" precision="I64" names="/encoder/layers/encoder_layer_1/self_attention/Constant_5_output_0">
					<dim>1</dim>
				</port>
			</output>
		</layer>
		<layer id="217" name="/encoder/layers/encoder_layer_1/self_attention/Constant_6" type="Const" version="opset1">
			<data element_type="i64" shape="1" offset="10165424" size="8" />
			<output>
				<port id="0" precision="I64" names="/encoder/layers/encoder_layer_1/self_attention/Constant_6_output_0">
					<dim>1</dim>
				</port>
			</output>
		</layer>
		<layer id="218" name="Broadcast_982" type="Const" version="opset1">
			<data element_type="i64" shape="1" offset="10165416" size="8" />
			<output>
				<port id="0" precision="I64">
					<dim>1</dim>
				</port>
			</output>
		</layer>
		<layer id="219" name="/encoder/layers/encoder_layer_1/self_attention/Slice" type="StridedSlice" version="opset1">
			<data begin_mask="0" end_mask="0" new_axis_mask="" shrink_axis_mask="" ellipsis_mask="" />
			<input>
				<port id="0" precision="I64">
					<dim>3</dim>
				</port>
				<port id="1" precision="I64">
					<dim>1</dim>
				</port>
				<port id="2" precision="I64">
					<dim>1</dim>
				</port>
				<port id="3" precision="I64">
					<dim>1</dim>
				</port>
			</input>
			<output>
				<port id="4" precision="I64" names="/encoder/layers/encoder_layer_1/self_attention/Slice_output_0">
					<dim>1</dim>
				</port>
			</output>
		</layer>
		<layer id="220" name="/encoder/layers/encoder_layer_1/self_attention/Constant_7" type="Const" version="opset1">
			<data element_type="i64" shape="1" offset="2476056" size="8" />
			<output>
				<port id="0" precision="I64" names="/encoder/layers/encoder_layer_1/self_attention/Constant_7_output_0">
					<dim>1</dim>
				</port>
			</output>
		</layer>
		<layer id="221" name="/encoder/layers/encoder_layer_1/self_attention/Squeeze" type="Squeeze" version="opset1">
			<input>
				<port id="0" precision="I64">
					<dim>1</dim>
				</port>
				<port id="1" precision="I64">
					<dim>1</dim>
				</port>
			</input>
			<output>
				<port id="2" precision="I64" names="/encoder/layers/encoder_layer_1/self_attention/Squeeze_output_0" />
			</output>
		</layer>
		<layer id="222" name="Constant_981" type="Const" version="opset1">
			<data element_type="i64" shape="1" offset="2476056" size="8" />
			<output>
				<port id="0" precision="I64" names="onnx::Unsqueeze_441">
					<dim>1</dim>
				</port>
			</output>
		</layer>
		<layer id="223" name="/encoder/layers/encoder_layer_1/self_attention/Unsqueeze" type="Unsqueeze" version="opset1">
			<input>
				<port id="0" precision="I64" />
				<port id="1" precision="I64">
					<dim>1</dim>
				</port>
			</input>
			<output>
				<port id="2" precision="I64" names="/encoder/layers/encoder_layer_1/self_attention/Unsqueeze_output_0">
					<dim>1</dim>
				</port>
			</output>
		</layer>
		<layer id="224" name="/encoder/layers/encoder_layer_1/self_attention/Concat" type="Concat" version="opset1">
			<data axis="0" />
			<input>
				<port id="0" precision="I64">
					<dim>1</dim>
				</port>
				<port id="1" precision="I64">
					<dim>1</dim>
				</port>
			</input>
			<output>
				<port id="2" precision="I64" names="/encoder/layers/encoder_layer_1/self_attention/Concat_output_0">
					<dim>2</dim>
				</port>
			</output>
		</layer>
		<layer id="225" name="/encoder/layers/encoder_layer_1/self_attention/Concat_1" type="Concat" version="opset1">
			<data axis="0" />
			<input>
				<port id="0" precision="I64">
					<dim>2</dim>
				</port>
				<port id="1" precision="I64">
					<dim>2</dim>
				</port>
			</input>
			<output>
				<port id="2" precision="I64" names="/encoder/layers/encoder_layer_1/self_attention/Concat_1_output_0">
					<dim>4</dim>
				</port>
			</output>
		</layer>
		<layer id="226" name="/encoder/layers/encoder_layer_1/self_attention/Reshape_2" type="Reshape" version="opset1">
			<data special_zero="true" />
			<input>
				<port id="0" precision="FP32">
					<dim>197</dim>
					<dim>1</dim>
					<dim>2304</dim>
				</port>
				<port id="1" precision="I64">
					<dim>4</dim>
				</port>
			</input>
			<output>
				<port id="2" precision="FP32" names="/encoder/layers/encoder_layer_1/self_attention/Reshape_2_output_0">
					<dim>197</dim>
					<dim>1</dim>
					<dim>3</dim>
					<dim>768</dim>
				</port>
			</output>
		</layer>
		<layer id="227" name="/encoder/layers/encoder_layer_1/self_attention/Constant_16" type="Const" version="opset1">
			<data element_type="i64" shape="1" offset="2476056" size="8" />
			<output>
				<port id="0" precision="I64" names="/encoder/layers/encoder_layer_1/self_attention/Constant_16_output_0">
					<dim>1</dim>
				</port>
			</output>
		</layer>
		<layer id="228" name="/encoder/layers/encoder_layer_1/self_attention/Unsqueeze_1" type="Unsqueeze" version="opset1">
			<input>
				<port id="0" precision="FP32">
					<dim>197</dim>
					<dim>1</dim>
					<dim>3</dim>
					<dim>768</dim>
				</port>
				<port id="1" precision="I64">
					<dim>1</dim>
				</port>
			</input>
			<output>
				<port id="2" precision="FP32" names="/encoder/layers/encoder_layer_1/self_attention/Unsqueeze_1_output_0">
					<dim>1</dim>
					<dim>197</dim>
					<dim>1</dim>
					<dim>3</dim>
					<dim>768</dim>
				</port>
			</output>
		</layer>
		<layer id="229" name="Constant_50185" type="Const" version="opset1">
			<data element_type="i64" shape="1" offset="2476056" size="8" />
			<output>
				<port id="0" precision="I64">
					<dim>1</dim>
				</port>
			</output>
		</layer>
		<layer id="230" name="Squeeze_50186" type="Squeeze" version="opset1">
			<input>
				<port id="0" precision="FP32">
					<dim>1</dim>
					<dim>197</dim>
					<dim>1</dim>
					<dim>3</dim>
					<dim>768</dim>
				</port>
				<port id="1" precision="I64">
					<dim>1</dim>
				</port>
			</input>
			<output>
				<port id="2" precision="FP32">
					<dim>197</dim>
					<dim>1</dim>
					<dim>3</dim>
					<dim>768</dim>
				</port>
			</output>
		</layer>
		<layer id="231" name="Constant_50187" type="Const" version="opset1">
			<data element_type="i64" shape="4" offset="10165432" size="32" />
			<output>
				<port id="0" precision="I64">
					<dim>4</dim>
				</port>
			</output>
		</layer>
		<layer id="232" name="/encoder/layers/encoder_layer_1/self_attention/Squeeze_1" type="Transpose" version="opset1">
			<input>
				<port id="0" precision="FP32">
					<dim>197</dim>
					<dim>1</dim>
					<dim>3</dim>
					<dim>768</dim>
				</port>
				<port id="1" precision="I64">
					<dim>4</dim>
				</port>
			</input>
			<output>
				<port id="2" precision="FP32" names="/encoder/layers/encoder_layer_1/self_attention/Squeeze_1_output_0">
					<dim>3</dim>
					<dim>197</dim>
					<dim>1</dim>
					<dim>768</dim>
				</port>
			</output>
		</layer>
		<layer id="233" name="Constant_1041_2" type="Const" version="opset1">
			<data element_type="i64" shape="" offset="2476056" size="8" />
			<output>
				<port id="0" precision="I64" />
			</output>
		</layer>
		<layer id="234" name="/encoder/layers/encoder_layer_1/self_attention/Gather_3" type="Gather" version="opset8">
			<data batch_dims="0" />
			<input>
				<port id="0" precision="FP32">
					<dim>3</dim>
					<dim>197</dim>
					<dim>1</dim>
					<dim>768</dim>
				</port>
				<port id="1" precision="I64" />
				<port id="2" precision="I64" />
			</input>
			<output>
				<port id="3" precision="FP32" names="/encoder/layers/encoder_layer_1/self_attention/Gather_3_output_0">
					<dim>197</dim>
					<dim>1</dim>
					<dim>768</dim>
				</port>
			</output>
		</layer>
		<layer id="235" name="Constant_45175" type="Const" version="opset1">
			<data element_type="i64" shape="1" offset="2476056" size="8" />
			<output>
				<port id="0" precision="I64">
					<dim>1</dim>
				</port>
			</output>
		</layer>
		<layer id="236" name="Constant_962" type="Const" version="opset1">
			<data element_type="i64" shape="" offset="2476056" size="8" />
			<output>
				<port id="0" precision="I64" />
			</output>
		</layer>
		<layer id="237" name="/encoder/layers/encoder_layer_1/self_attention/Gather" type="Gather" version="opset8">
			<data batch_dims="0" />
			<input>
				<port id="0" precision="I64">
					<dim>3</dim>
				</port>
				<port id="1" precision="I64">
					<dim>1</dim>
				</port>
				<port id="2" precision="I64" />
			</input>
			<output>
				<port id="3" precision="I64" names="/encoder/layers/encoder_layer_1/self_attention/Gather_output_0,/encoder/layers/encoder_layer_1/self_attention/Unsqueeze_10_output_0,/encoder/layers/encoder_layer_1/self_attention/Unsqueeze_20_output_0,/encoder/layers/encoder_layer_1/self_attention/Unsqueeze_2_output_0">
					<dim>1</dim>
				</port>
			</output>
		</layer>
		<layer id="238" name="/encoder/layers/encoder_layer_1/self_attention/Constant_1" type="Const" version="opset1">
			<data element_type="i64" shape="" offset="10165416" size="8" />
			<output>
				<port id="0" precision="I64" names="/encoder/layers/encoder_layer_1/self_attention/Constant_1_output_0" />
			</output>
		</layer>
		<layer id="239" name="Constant_966" type="Const" version="opset1">
			<data element_type="i64" shape="" offset="2476056" size="8" />
			<output>
				<port id="0" precision="I64" />
			</output>
		</layer>
		<layer id="240" name="/encoder/layers/encoder_layer_1/self_attention/Gather_1" type="Gather" version="opset8">
			<data batch_dims="0" />
			<input>
				<port id="0" precision="I64">
					<dim>3</dim>
				</port>
				<port id="1" precision="I64" />
				<port id="2" precision="I64" />
			</input>
			<output>
				<port id="3" precision="I64" names="/encoder/layers/encoder_layer_1/self_attention/Gather_1_output_0" />
			</output>
		</layer>
		<layer id="241" name="/encoder/layers/encoder_layer_1/self_attention/Constant_18" type="Const" version="opset1">
			<data element_type="i64" shape="" offset="10165464" size="8" />
			<output>
				<port id="0" precision="I64" names="/encoder/layers/encoder_layer_1/self_attention/Constant_18_output_0" />
			</output>
		</layer>
		<layer id="242" name="/encoder/layers/encoder_layer_1/self_attention/Mul" type="Multiply" version="opset1">
			<data auto_broadcast="numpy" />
			<input>
				<port id="0" precision="I64" />
				<port id="1" precision="I64" />
			</input>
			<output>
				<port id="2" precision="I64" names="/encoder/layers/encoder_layer_1/self_attention/Mul_output_0" />
			</output>
		</layer>
		<layer id="243" name="Constant_1012" type="Const" version="opset1">
			<data element_type="i64" shape="1" offset="2476056" size="8" />
			<output>
				<port id="0" precision="I64" names="onnx::Unsqueeze_474">
					<dim>1</dim>
				</port>
			</output>
		</layer>
		<layer id="244" name="/encoder/layers/encoder_layer_1/self_attention/Unsqueeze_3" type="Unsqueeze" version="opset1">
			<input>
				<port id="0" precision="I64" />
				<port id="1" precision="I64">
					<dim>1</dim>
				</port>
			</input>
			<output>
				<port id="2" precision="I64" names="/encoder/layers/encoder_layer_1/self_attention/Unsqueeze_3_output_0,/encoder/layers/encoder_layer_1/self_attention/Unsqueeze_5_output_0,/encoder/layers/encoder_layer_1/self_attention/Unsqueeze_7_output_0">
					<dim>1</dim>
				</port>
			</output>
		</layer>
		<layer id="245" name="/encoder/layers/encoder_layer_1/self_attention/Constant_2" type="Const" version="opset1">
			<data element_type="i64" shape="" offset="2476072" size="8" />
			<output>
				<port id="0" precision="I64" names="/encoder/layers/encoder_layer_1/self_attention/Constant_2_output_0" />
			</output>
		</layer>
		<layer id="246" name="Constant_970" type="Const" version="opset1">
			<data element_type="i64" shape="" offset="2476056" size="8" />
			<output>
				<port id="0" precision="I64" />
			</output>
		</layer>
		<layer id="247" name="/encoder/layers/encoder_layer_1/self_attention/Gather_2" type="Gather" version="opset8">
			<data batch_dims="0" />
			<input>
				<port id="0" precision="I64">
					<dim>3</dim>
				</port>
				<port id="1" precision="I64" />
				<port id="2" precision="I64" />
			</input>
			<output>
				<port id="3" precision="I64" names="/encoder/layers/encoder_layer_1/self_attention/Gather_2_output_0" />
			</output>
		</layer>
		<layer id="248" name="/encoder/layers/encoder_layer_1/self_attention/Constant_3" type="Const" version="opset1">
			<data element_type="i64" shape="" offset="10165464" size="8" />
			<output>
				<port id="0" precision="I64" names="/encoder/layers/encoder_layer_1/self_attention/Constant_3_output_0" />
			</output>
		</layer>
		<layer id="249" name="/encoder/layers/encoder_layer_1/self_attention/Div" type="Divide" version="opset1">
			<data auto_broadcast="numpy" m_pythondiv="true" />
			<input>
				<port id="0" precision="I64" />
				<port id="1" precision="I64" />
			</input>
			<output>
				<port id="2" precision="I64" names="/encoder/layers/encoder_layer_1/self_attention/Cast_1_output_0,/encoder/layers/encoder_layer_1/self_attention/Cast_output_0,/encoder/layers/encoder_layer_1/self_attention/Div_output_0" />
			</output>
		</layer>
		<layer id="250" name="Constant_1022" type="Const" version="opset1">
			<data element_type="i64" shape="1" offset="2476056" size="8" />
			<output>
				<port id="0" precision="I64" names="onnx::Unsqueeze_486">
					<dim>1</dim>
				</port>
			</output>
		</layer>
		<layer id="251" name="/encoder/layers/encoder_layer_1/self_attention/Unsqueeze_6" type="Unsqueeze" version="opset1">
			<input>
				<port id="0" precision="I64" />
				<port id="1" precision="I64">
					<dim>1</dim>
				</port>
			</input>
			<output>
				<port id="2" precision="I64" names="/encoder/layers/encoder_layer_1/self_attention/Unsqueeze_11_output_0,/encoder/layers/encoder_layer_1/self_attention/Unsqueeze_14_output_0,/encoder/layers/encoder_layer_1/self_attention/Unsqueeze_17_output_0,/encoder/layers/encoder_layer_1/self_attention/Unsqueeze_4_output_0,/encoder/layers/encoder_layer_1/self_attention/Unsqueeze_6_output_0,/encoder/layers/encoder_layer_1/self_attention/Unsqueeze_8_output_0">
					<dim>1</dim>
				</port>
			</output>
		</layer>
		<layer id="252" name="/encoder/layers/encoder_layer_1/self_attention/Concat_2" type="Concat" version="opset1">
			<data axis="0" />
			<input>
				<port id="0" precision="I64">
					<dim>1</dim>
				</port>
				<port id="1" precision="I64">
					<dim>1</dim>
				</port>
				<port id="2" precision="I64">
					<dim>1</dim>
				</port>
			</input>
			<output>
				<port id="3" precision="I64" names="/encoder/layers/encoder_layer_1/self_attention/Concat_2_output_0">
					<dim>3</dim>
				</port>
			</output>
		</layer>
		<layer id="253" name="/encoder/layers/encoder_layer_1/self_attention/Reshape_3" type="Reshape" version="opset1">
			<data special_zero="true" />
			<input>
				<port id="0" precision="FP32">
					<dim>197</dim>
					<dim>1</dim>
					<dim>768</dim>
				</port>
				<port id="1" precision="I64">
					<dim>3</dim>
				</port>
			</input>
			<output>
				<port id="2" precision="FP32" names="/encoder/layers/encoder_layer_1/self_attention/Reshape_3_output_0">
					<dim>197</dim>
					<dim>12</dim>
					<dim>64</dim>
				</port>
			</output>
		</layer>
		<layer id="254" name="Constant_1113" type="Const" version="opset1">
			<data element_type="i64" shape="3" offset="3087504" size="24" />
			<output>
				<port id="0" precision="I64">
					<dim>3</dim>
				</port>
			</output>
		</layer>
		<layer id="255" name="/encoder/layers/encoder_layer_1/self_attention/Transpose_2" type="Transpose" version="opset1">
			<input>
				<port id="0" precision="FP32">
					<dim>197</dim>
					<dim>12</dim>
					<dim>64</dim>
				</port>
				<port id="1" precision="I64">
					<dim>3</dim>
				</port>
			</input>
			<output>
				<port id="2" precision="FP32" names="/encoder/layers/encoder_layer_1/self_attention/Transpose_2_output_0">
					<dim>12</dim>
					<dim>197</dim>
					<dim>64</dim>
				</port>
			</output>
		</layer>
		<layer id="256" name="Constant_1047" type="Const" version="opset1">
			<data element_type="i64" shape="1" offset="2476056" size="8" />
			<output>
				<port id="0" precision="I64" names="onnx::Unsqueeze_514">
					<dim>1</dim>
				</port>
			</output>
		</layer>
		<layer id="257" name="/encoder/layers/encoder_layer_1/self_attention/Unsqueeze_12" type="Unsqueeze" version="opset1">
			<input>
				<port id="0" precision="I64" />
				<port id="1" precision="I64">
					<dim>1</dim>
				</port>
			</input>
			<output>
				<port id="2" precision="I64" names="/encoder/layers/encoder_layer_1/self_attention/Unsqueeze_12_output_0,/encoder/layers/encoder_layer_1/self_attention/Unsqueeze_15_output_0,/encoder/layers/encoder_layer_1/self_attention/Unsqueeze_21_output_0,/encoder/layers/encoder_layer_1/self_attention/Unsqueeze_9_output_0">
					<dim>1</dim>
				</port>
			</output>
		</layer>
		<layer id="258" name="/encoder/layers/encoder_layer_1/self_attention/Constant_22" type="Const" version="opset1">
			<data element_type="i64" shape="1" offset="10165464" size="8" />
			<output>
				<port id="0" precision="I64" names="/encoder/layers/encoder_layer_1/self_attention/Constant_22_output_0">
					<dim>1</dim>
				</port>
			</output>
		</layer>
		<layer id="259" name="/encoder/layers/encoder_layer_1/self_attention/Concat_5" type="Concat" version="opset1">
			<data axis="0" />
			<input>
				<port id="0" precision="I64">
					<dim>1</dim>
				</port>
				<port id="1" precision="I64">
					<dim>1</dim>
				</port>
				<port id="2" precision="I64">
					<dim>1</dim>
				</port>
				<port id="3" precision="I64">
					<dim>1</dim>
				</port>
			</input>
			<output>
				<port id="4" precision="I64" names="/encoder/layers/encoder_layer_1/self_attention/Concat_5_output_0">
					<dim>4</dim>
				</port>
			</output>
		</layer>
		<layer id="260" name="/encoder/layers/encoder_layer_1/self_attention/Reshape_6" type="Reshape" version="opset1">
			<data special_zero="true" />
			<input>
				<port id="0" precision="FP32">
					<dim>12</dim>
					<dim>197</dim>
					<dim>64</dim>
				</port>
				<port id="1" precision="I64">
					<dim>4</dim>
				</port>
			</input>
			<output>
				<port id="2" precision="FP32" names="/encoder/layers/encoder_layer_1/self_attention/Reshape_6_output_0">
					<dim>1</dim>
					<dim>12</dim>
					<dim>197</dim>
					<dim>64</dim>
				</port>
			</output>
		</layer>
		<layer id="261" name="/encoder/layers/encoder_layer_1/self_attention/Constant_27" type="Const" version="opset1">
			<data element_type="f32" shape="1" offset="10165472" size="4" />
			<output>
				<port id="0" precision="FP32" names="/encoder/layers/encoder_layer_1/self_attention/Constant_27_output_0">
					<dim>1</dim>
				</port>
			</output>
		</layer>
		<layer id="262" name="/encoder/layers/encoder_layer_1/self_attention/Shape_6" type="ShapeOf" version="opset3">
			<data output_type="i64" />
			<input>
				<port id="0" precision="FP32">
					<dim>1</dim>
					<dim>12</dim>
					<dim>197</dim>
					<dim>64</dim>
				</port>
			</input>
			<output>
				<port id="1" precision="I64" names="/encoder/layers/encoder_layer_1/self_attention/Shape_6_output_0">
					<dim>4</dim>
				</port>
			</output>
		</layer>
		<layer id="263" name="/encoder/layers/encoder_layer_1/self_attention/Constant_25" type="Const" version="opset1">
			<data element_type="i64" shape="1" offset="2476120" size="8" />
			<output>
				<port id="0" precision="I64" names="/encoder/layers/encoder_layer_1/self_attention/Constant_25_output_0">
					<dim>1</dim>
				</port>
			</output>
		</layer>
		<layer id="264" name="/encoder/layers/encoder_layer_1/self_attention/Constant_26" type="Const" version="opset1">
			<data element_type="i64" shape="1" offset="10165424" size="8" />
			<output>
				<port id="0" precision="I64" names="/encoder/layers/encoder_layer_1/self_attention/Constant_26_output_0">
					<dim>1</dim>
				</port>
			</output>
		</layer>
		<layer id="265" name="Broadcast_1449" type="Const" version="opset1">
			<data element_type="i64" shape="1" offset="10165416" size="8" />
			<output>
				<port id="0" precision="I64">
					<dim>1</dim>
				</port>
			</output>
		</layer>
		<layer id="266" name="/encoder/layers/encoder_layer_1/self_attention/Slice_3" type="StridedSlice" version="opset1">
			<data begin_mask="0" end_mask="0" new_axis_mask="" shrink_axis_mask="" ellipsis_mask="" />
			<input>
				<port id="0" precision="I64">
					<dim>4</dim>
				</port>
				<port id="1" precision="I64">
					<dim>1</dim>
				</port>
				<port id="2" precision="I64">
					<dim>1</dim>
				</port>
				<port id="3" precision="I64">
					<dim>1</dim>
				</port>
			</input>
			<output>
				<port id="4" precision="I64" names="/encoder/layers/encoder_layer_1/self_attention/Slice_3_output_0">
					<dim>1</dim>
				</port>
			</output>
		</layer>
		<layer id="267" name="/encoder/layers/encoder_layer_1/self_attention/Cast_2" type="Convert" version="opset1">
			<data destination_type="f32" />
			<input>
				<port id="0" precision="I64">
					<dim>1</dim>
				</port>
			</input>
			<output>
				<port id="1" precision="FP32" names="/encoder/layers/encoder_layer_1/self_attention/Cast_2_output_0">
					<dim>1</dim>
				</port>
			</output>
		</layer>
		<layer id="268" name="/encoder/layers/encoder_layer_1/self_attention/Sqrt" type="Sqrt" version="opset1">
			<input>
				<port id="0" precision="FP32">
					<dim>1</dim>
				</port>
			</input>
			<output>
				<port id="1" precision="FP32" names="/encoder/layers/encoder_layer_1/self_attention/Sqrt_output_0">
					<dim>1</dim>
				</port>
			</output>
		</layer>
		<layer id="269" name="/encoder/layers/encoder_layer_1/self_attention/Div_1" type="Divide" version="opset1">
			<data auto_broadcast="numpy" m_pythondiv="true" />
			<input>
				<port id="0" precision="FP32">
					<dim>1</dim>
				</port>
				<port id="1" precision="FP32">
					<dim>1</dim>
				</port>
			</input>
			<output>
				<port id="2" precision="FP32" names="/encoder/layers/encoder_layer_1/self_attention/Cast_3_output_0,/encoder/layers/encoder_layer_1/self_attention/Div_1_output_0">
					<dim>1</dim>
				</port>
			</output>
		</layer>
		<layer id="270" name="/encoder/layers/encoder_layer_1/self_attention/Sqrt_1" type="Sqrt" version="opset1">
			<input>
				<port id="0" precision="FP32">
					<dim>1</dim>
				</port>
			</input>
			<output>
				<port id="1" precision="FP32" names="/encoder/layers/encoder_layer_1/self_attention/Sqrt_1_output_0">
					<dim>1</dim>
				</port>
			</output>
		</layer>
		<layer id="271" name="/encoder/layers/encoder_layer_1/self_attention/Mul_1" type="Multiply" version="opset1">
			<data auto_broadcast="numpy" />
			<input>
				<port id="0" precision="FP32">
					<dim>1</dim>
					<dim>12</dim>
					<dim>197</dim>
					<dim>64</dim>
				</port>
				<port id="1" precision="FP32">
					<dim>1</dim>
				</port>
			</input>
			<output>
				<port id="2" precision="FP32" names="/encoder/layers/encoder_layer_1/self_attention/Mul_1_output_0">
					<dim>1</dim>
					<dim>12</dim>
					<dim>197</dim>
					<dim>64</dim>
				</port>
			</output>
		</layer>
		<layer id="272" name="Constant_1043_2" type="Const" version="opset1">
			<data element_type="i64" shape="" offset="2476056" size="8" />
			<output>
				<port id="0" precision="I64" />
			</output>
		</layer>
		<layer id="273" name="/encoder/layers/encoder_layer_1/self_attention/Gather_4" type="Gather" version="opset8">
			<data batch_dims="0" />
			<input>
				<port id="0" precision="FP32">
					<dim>3</dim>
					<dim>197</dim>
					<dim>1</dim>
					<dim>768</dim>
				</port>
				<port id="1" precision="I64" />
				<port id="2" precision="I64" />
			</input>
			<output>
				<port id="3" precision="FP32" names="/encoder/layers/encoder_layer_1/self_attention/Gather_4_output_0">
					<dim>197</dim>
					<dim>1</dim>
					<dim>768</dim>
				</port>
			</output>
		</layer>
		<layer id="274" name="/encoder/layers/encoder_layer_1/self_attention/Constant_20" type="Const" version="opset1">
			<data element_type="i64" shape="1" offset="10165476" size="8" />
			<output>
				<port id="0" precision="I64" names="/encoder/layers/encoder_layer_1/self_attention/Constant_20_output_0">
					<dim>1</dim>
				</port>
			</output>
		</layer>
		<layer id="275" name="/encoder/layers/encoder_layer_1/self_attention/Concat_4" type="Concat" version="opset1">
			<data axis="0" />
			<input>
				<port id="0" precision="I64">
					<dim>1</dim>
				</port>
				<port id="1" precision="I64">
					<dim>1</dim>
				</port>
				<port id="2" precision="I64">
					<dim>1</dim>
				</port>
			</input>
			<output>
				<port id="3" precision="I64" names="/encoder/layers/encoder_layer_1/self_attention/Concat_3_output_0,/encoder/layers/encoder_layer_1/self_attention/Concat_4_output_0">
					<dim>3</dim>
				</port>
			</output>
		</layer>
		<layer id="276" name="/encoder/layers/encoder_layer_1/self_attention/Reshape_4" type="Reshape" version="opset1">
			<data special_zero="true" />
			<input>
				<port id="0" precision="FP32">
					<dim>197</dim>
					<dim>1</dim>
					<dim>768</dim>
				</port>
				<port id="1" precision="I64">
					<dim>3</dim>
				</port>
			</input>
			<output>
				<port id="2" precision="FP32" names="/encoder/layers/encoder_layer_1/self_attention/Reshape_4_output_0">
					<dim>197</dim>
					<dim>12</dim>
					<dim>64</dim>
				</port>
			</output>
		</layer>
		<layer id="277" name="Constant_1178" type="Const" version="opset1">
			<data element_type="i64" shape="3" offset="3087504" size="24" />
			<output>
				<port id="0" precision="I64">
					<dim>3</dim>
				</port>
			</output>
		</layer>
		<layer id="278" name="/encoder/layers/encoder_layer_1/self_attention/Transpose_3" type="Transpose" version="opset1">
			<input>
				<port id="0" precision="FP32">
					<dim>197</dim>
					<dim>12</dim>
					<dim>64</dim>
				</port>
				<port id="1" precision="I64">
					<dim>3</dim>
				</port>
			</input>
			<output>
				<port id="2" precision="FP32" names="/encoder/layers/encoder_layer_1/self_attention/Transpose_3_output_0">
					<dim>12</dim>
					<dim>197</dim>
					<dim>64</dim>
				</port>
			</output>
		</layer>
		<layer id="279" name="/encoder/layers/encoder_layer_1/self_attention/Constant_23" type="Const" version="opset1">
			<data element_type="i64" shape="1" offset="10165464" size="8" />
			<output>
				<port id="0" precision="I64" names="/encoder/layers/encoder_layer_1/self_attention/Constant_23_output_0">
					<dim>1</dim>
				</port>
			</output>
		</layer>
		<layer id="280" name="/encoder/layers/encoder_layer_1/self_attention/Shape_5" type="ShapeOf" version="opset3">
			<data output_type="i64" />
			<input>
				<port id="0" precision="FP32">
					<dim>12</dim>
					<dim>197</dim>
					<dim>64</dim>
				</port>
			</input>
			<output>
				<port id="1" precision="I64" names="/encoder/layers/encoder_layer_1/self_attention/Shape_5_output_0">
					<dim>3</dim>
				</port>
			</output>
		</layer>
		<layer id="281" name="Constant_45180" type="Const" version="opset1">
			<data element_type="i64" shape="1" offset="10165416" size="8" />
			<output>
				<port id="0" precision="I64">
					<dim>1</dim>
				</port>
			</output>
		</layer>
		<layer id="282" name="Constant_1247" type="Const" version="opset1">
			<data element_type="i64" shape="" offset="2476056" size="8" />
			<output>
				<port id="0" precision="I64" />
			</output>
		</layer>
		<layer id="283" name="/encoder/layers/encoder_layer_1/self_attention/Gather_6" type="Gather" version="opset8">
			<data batch_dims="0" />
			<input>
				<port id="0" precision="I64">
					<dim>3</dim>
				</port>
				<port id="1" precision="I64">
					<dim>1</dim>
				</port>
				<port id="2" precision="I64" />
			</input>
			<output>
				<port id="3" precision="I64" names="/encoder/layers/encoder_layer_1/self_attention/Gather_6_output_0,/encoder/layers/encoder_layer_1/self_attention/Unsqueeze_13_output_0,/encoder/layers/encoder_layer_1/self_attention/Unsqueeze_16_output_0">
					<dim>1</dim>
				</port>
			</output>
		</layer>
		<layer id="284" name="/encoder/layers/encoder_layer_1/self_attention/Concat_6" type="Concat" version="opset1">
			<data axis="0" />
			<input>
				<port id="0" precision="I64">
					<dim>1</dim>
				</port>
				<port id="1" precision="I64">
					<dim>1</dim>
				</port>
				<port id="2" precision="I64">
					<dim>1</dim>
				</port>
				<port id="3" precision="I64">
					<dim>1</dim>
				</port>
			</input>
			<output>
				<port id="4" precision="I64" names="/encoder/layers/encoder_layer_1/self_attention/Concat_6_output_0,/encoder/layers/encoder_layer_1/self_attention/Concat_7_output_0">
					<dim>4</dim>
				</port>
			</output>
		</layer>
		<layer id="285" name="/encoder/layers/encoder_layer_1/self_attention/Reshape_7" type="Reshape" version="opset1">
			<data special_zero="true" />
			<input>
				<port id="0" precision="FP32">
					<dim>12</dim>
					<dim>197</dim>
					<dim>64</dim>
				</port>
				<port id="1" precision="I64">
					<dim>4</dim>
				</port>
			</input>
			<output>
				<port id="2" precision="FP32" names="/encoder/layers/encoder_layer_1/self_attention/Reshape_7_output_0">
					<dim>1</dim>
					<dim>12</dim>
					<dim>197</dim>
					<dim>64</dim>
				</port>
			</output>
		</layer>
		<layer id="286" name="Constant_1460_2" type="Const" version="opset1">
			<data element_type="i64" shape="4" offset="10165484" size="32" />
			<output>
				<port id="0" precision="I64">
					<dim>4</dim>
				</port>
			</output>
		</layer>
		<layer id="287" name="/encoder/layers/encoder_layer_1/self_attention/Transpose_5" type="Transpose" version="opset1">
			<input>
				<port id="0" precision="FP32">
					<dim>1</dim>
					<dim>12</dim>
					<dim>197</dim>
					<dim>64</dim>
				</port>
				<port id="1" precision="I64">
					<dim>4</dim>
				</port>
			</input>
			<output>
				<port id="2" precision="FP32" names="/encoder/layers/encoder_layer_1/self_attention/Transpose_5_output_0">
					<dim>1</dim>
					<dim>12</dim>
					<dim>64</dim>
					<dim>197</dim>
				</port>
			</output>
		</layer>
		<layer id="288" name="/encoder/layers/encoder_layer_1/self_attention/Sqrt_2" type="Sqrt" version="opset1">
			<input>
				<port id="0" precision="FP32">
					<dim>1</dim>
				</port>
			</input>
			<output>
				<port id="1" precision="FP32" names="/encoder/layers/encoder_layer_1/self_attention/Sqrt_2_output_0">
					<dim>1</dim>
				</port>
			</output>
		</layer>
		<layer id="289" name="/encoder/layers/encoder_layer_1/self_attention/Mul_2" type="Multiply" version="opset1">
			<data auto_broadcast="numpy" />
			<input>
				<port id="0" precision="FP32">
					<dim>1</dim>
					<dim>12</dim>
					<dim>64</dim>
					<dim>197</dim>
				</port>
				<port id="1" precision="FP32">
					<dim>1</dim>
				</port>
			</input>
			<output>
				<port id="2" precision="FP32" names="/encoder/layers/encoder_layer_1/self_attention/Mul_2_output_0">
					<dim>1</dim>
					<dim>12</dim>
					<dim>64</dim>
					<dim>197</dim>
				</port>
			</output>
		</layer>
		<layer id="290" name="/encoder/layers/encoder_layer_1/self_attention/MatMul_1" type="MatMul" version="opset1">
			<data transpose_a="false" transpose_b="false" />
			<input>
				<port id="0" precision="FP32">
					<dim>1</dim>
					<dim>12</dim>
					<dim>197</dim>
					<dim>64</dim>
				</port>
				<port id="1" precision="FP32">
					<dim>1</dim>
					<dim>12</dim>
					<dim>64</dim>
					<dim>197</dim>
				</port>
			</input>
			<output>
				<port id="2" precision="FP32" names="/encoder/layers/encoder_layer_1/self_attention/MatMul_1_output_0">
					<dim>1</dim>
					<dim>12</dim>
					<dim>197</dim>
					<dim>197</dim>
				</port>
			</output>
		</layer>
		<layer id="291" name="/encoder/layers/encoder_layer_1/self_attention/Softmax" type="SoftMax" version="opset8">
			<data axis="-1" />
			<input>
				<port id="0" precision="FP32">
					<dim>1</dim>
					<dim>12</dim>
					<dim>197</dim>
					<dim>197</dim>
				</port>
			</input>
			<output>
				<port id="1" precision="FP32" names="/encoder/layers/encoder_layer_1/self_attention/Softmax_output_0">
					<dim>1</dim>
					<dim>12</dim>
					<dim>197</dim>
					<dim>197</dim>
				</port>
			</output>
		</layer>
		<layer id="292" name="Constant_1045" type="Const" version="opset1">
			<data element_type="i64" shape="" offset="2476056" size="8" />
			<output>
				<port id="0" precision="I64" />
			</output>
		</layer>
		<layer id="293" name="/encoder/layers/encoder_layer_1/self_attention/Gather_5" type="Gather" version="opset8">
			<data batch_dims="0" />
			<input>
				<port id="0" precision="FP32">
					<dim>3</dim>
					<dim>197</dim>
					<dim>1</dim>
					<dim>768</dim>
				</port>
				<port id="1" precision="I64" />
				<port id="2" precision="I64" />
			</input>
			<output>
				<port id="3" precision="FP32" names="/encoder/layers/encoder_layer_1/self_attention/Gather_5_output_0">
					<dim>197</dim>
					<dim>1</dim>
					<dim>768</dim>
				</port>
			</output>
		</layer>
		<layer id="294" name="/encoder/layers/encoder_layer_1/self_attention/Reshape_5" type="Reshape" version="opset1">
			<data special_zero="true" />
			<input>
				<port id="0" precision="FP32">
					<dim>197</dim>
					<dim>1</dim>
					<dim>768</dim>
				</port>
				<port id="1" precision="I64">
					<dim>3</dim>
				</port>
			</input>
			<output>
				<port id="2" precision="FP32" names="/encoder/layers/encoder_layer_1/self_attention/Reshape_5_output_0">
					<dim>197</dim>
					<dim>12</dim>
					<dim>64</dim>
				</port>
			</output>
		</layer>
		<layer id="295" name="Constant_1243" type="Const" version="opset1">
			<data element_type="i64" shape="3" offset="3087504" size="24" />
			<output>
				<port id="0" precision="I64">
					<dim>3</dim>
				</port>
			</output>
		</layer>
		<layer id="296" name="/encoder/layers/encoder_layer_1/self_attention/Transpose_4" type="Transpose" version="opset1">
			<input>
				<port id="0" precision="FP32">
					<dim>197</dim>
					<dim>12</dim>
					<dim>64</dim>
				</port>
				<port id="1" precision="I64">
					<dim>3</dim>
				</port>
			</input>
			<output>
				<port id="2" precision="FP32" names="/encoder/layers/encoder_layer_1/self_attention/Transpose_4_output_0">
					<dim>12</dim>
					<dim>197</dim>
					<dim>64</dim>
				</port>
			</output>
		</layer>
		<layer id="297" name="/encoder/layers/encoder_layer_1/self_attention/Reshape_8" type="Reshape" version="opset1">
			<data special_zero="true" />
			<input>
				<port id="0" precision="FP32">
					<dim>12</dim>
					<dim>197</dim>
					<dim>64</dim>
				</port>
				<port id="1" precision="I64">
					<dim>4</dim>
				</port>
			</input>
			<output>
				<port id="2" precision="FP32" names="/encoder/layers/encoder_layer_1/self_attention/Reshape_8_output_0">
					<dim>1</dim>
					<dim>12</dim>
					<dim>197</dim>
					<dim>64</dim>
				</port>
			</output>
		</layer>
		<layer id="298" name="/encoder/layers/encoder_layer_1/self_attention/MatMul_2" type="MatMul" version="opset1">
			<data transpose_a="false" transpose_b="false" />
			<input>
				<port id="0" precision="FP32">
					<dim>1</dim>
					<dim>12</dim>
					<dim>197</dim>
					<dim>197</dim>
				</port>
				<port id="1" precision="FP32">
					<dim>1</dim>
					<dim>12</dim>
					<dim>197</dim>
					<dim>64</dim>
				</port>
			</input>
			<output>
				<port id="2" precision="FP32" names="/encoder/layers/encoder_layer_1/self_attention/MatMul_2_output_0">
					<dim>1</dim>
					<dim>12</dim>
					<dim>197</dim>
					<dim>64</dim>
				</port>
			</output>
		</layer>
		<layer id="299" name="Constant_1469" type="Const" version="opset1">
			<data element_type="i64" shape="4" offset="10165432" size="32" />
			<output>
				<port id="0" precision="I64">
					<dim>4</dim>
				</port>
			</output>
		</layer>
		<layer id="300" name="/encoder/layers/encoder_layer_1/self_attention/Transpose_6" type="Transpose" version="opset1">
			<input>
				<port id="0" precision="FP32">
					<dim>1</dim>
					<dim>12</dim>
					<dim>197</dim>
					<dim>64</dim>
				</port>
				<port id="1" precision="I64">
					<dim>4</dim>
				</port>
			</input>
			<output>
				<port id="2" precision="FP32" names="/encoder/layers/encoder_layer_1/self_attention/Transpose_6_output_0">
					<dim>197</dim>
					<dim>1</dim>
					<dim>12</dim>
					<dim>64</dim>
				</port>
			</output>
		</layer>
		<layer id="301" name="/encoder/layers/encoder_layer_1/self_attention/Concat_8" type="Const" version="opset1">
			<data element_type="i64" shape="2" offset="10165516" size="16" />
			<output>
				<port id="0" precision="I64" names="/encoder/layers/encoder_layer_1/self_attention/Concat_8_output_0">
					<dim>2</dim>
				</port>
			</output>
		</layer>
		<layer id="302" name="/encoder/layers/encoder_layer_1/self_attention/Reshape_9" type="Reshape" version="opset1">
			<data special_zero="true" />
			<input>
				<port id="0" precision="FP32">
					<dim>197</dim>
					<dim>1</dim>
					<dim>12</dim>
					<dim>64</dim>
				</port>
				<port id="1" precision="I64">
					<dim>2</dim>
				</port>
			</input>
			<output>
				<port id="2" precision="FP32" names="/encoder/layers/encoder_layer_1/self_attention/Reshape_9_output_0">
					<dim>197</dim>
					<dim>768</dim>
				</port>
			</output>
		</layer>
		<layer id="303" name="encoder.layers.encoder_layer_1.self_attention.out_proj.weight" type="Const" version="opset1">
			<data element_type="f32" shape="768, 768" offset="38507804" size="2359296" />
			<output>
				<port id="0" precision="FP32" names="encoder.layers.encoder_layer_1.self_attention.out_proj.weight">
					<dim>768</dim>
					<dim>768</dim>
				</port>
			</output>
		</layer>
		<layer id="304" name="/encoder/layers/encoder_layer_1/self_attention/Gemm/WithoutBiases" type="MatMul" version="opset1">
			<data transpose_a="false" transpose_b="true" />
			<input>
				<port id="0" precision="FP32">
					<dim>197</dim>
					<dim>768</dim>
				</port>
				<port id="1" precision="FP32">
					<dim>768</dim>
					<dim>768</dim>
				</port>
			</input>
			<output>
				<port id="2" precision="FP32">
					<dim>197</dim>
					<dim>768</dim>
				</port>
			</output>
		</layer>
		<layer id="305" name="Constant_51609" type="Const" version="opset1">
			<data element_type="f32" shape="1, 768" offset="40867100" size="3072" />
			<output>
				<port id="0" precision="FP32">
					<dim>1</dim>
					<dim>768</dim>
				</port>
			</output>
		</layer>
		<layer id="306" name="/encoder/layers/encoder_layer_1/self_attention/Gemm" type="Add" version="opset1">
			<data auto_broadcast="numpy" />
			<input>
				<port id="0" precision="FP32">
					<dim>197</dim>
					<dim>768</dim>
				</port>
				<port id="1" precision="FP32">
					<dim>1</dim>
					<dim>768</dim>
				</port>
			</input>
			<output>
				<port id="2" precision="FP32" names="/encoder/layers/encoder_layer_1/self_attention/Gemm_output_0">
					<dim>197</dim>
					<dim>768</dim>
				</port>
			</output>
		</layer>
		<layer id="307" name="/encoder/layers/encoder_layer_1/self_attention/Shape_7" type="ShapeOf" version="opset3">
			<data output_type="i64" />
			<input>
				<port id="0" precision="FP32">
					<dim>197</dim>
					<dim>768</dim>
				</port>
			</input>
			<output>
				<port id="1" precision="I64" names="/encoder/layers/encoder_layer_1/self_attention/Shape_7_output_0">
					<dim>2</dim>
				</port>
			</output>
		</layer>
		<layer id="308" name="Constant_45185" type="Const" version="opset1">
			<data element_type="i64" shape="1" offset="10165416" size="8" />
			<output>
				<port id="0" precision="I64">
					<dim>1</dim>
				</port>
			</output>
		</layer>
		<layer id="309" name="Constant_1488" type="Const" version="opset1">
			<data element_type="i64" shape="" offset="2476056" size="8" />
			<output>
				<port id="0" precision="I64" />
			</output>
		</layer>
		<layer id="310" name="/encoder/layers/encoder_layer_1/self_attention/Gather_7" type="Gather" version="opset8">
			<data batch_dims="0" />
			<input>
				<port id="0" precision="I64">
					<dim>2</dim>
				</port>
				<port id="1" precision="I64">
					<dim>1</dim>
				</port>
				<port id="2" precision="I64" />
			</input>
			<output>
				<port id="3" precision="I64" names="/encoder/layers/encoder_layer_1/self_attention/Gather_7_output_0,/encoder/layers/encoder_layer_1/self_attention/Unsqueeze_22_output_0">
					<dim>1</dim>
				</port>
			</output>
		</layer>
		<layer id="311" name="/encoder/layers/encoder_layer_1/self_attention/Concat_9" type="Concat" version="opset1">
			<data axis="0" />
			<input>
				<port id="0" precision="I64">
					<dim>1</dim>
				</port>
				<port id="1" precision="I64">
					<dim>1</dim>
				</port>
				<port id="2" precision="I64">
					<dim>1</dim>
				</port>
			</input>
			<output>
				<port id="3" precision="I64" names="/encoder/layers/encoder_layer_1/self_attention/Concat_9_output_0">
					<dim>3</dim>
				</port>
			</output>
		</layer>
		<layer id="312" name="/encoder/layers/encoder_layer_1/self_attention/Reshape_10" type="Reshape" version="opset1">
			<data special_zero="true" />
			<input>
				<port id="0" precision="FP32">
					<dim>197</dim>
					<dim>768</dim>
				</port>
				<port id="1" precision="I64">
					<dim>3</dim>
				</port>
			</input>
			<output>
				<port id="2" precision="FP32" names="/encoder/layers/encoder_layer_1/self_attention/Reshape_10_output_0">
					<dim>197</dim>
					<dim>1</dim>
					<dim>768</dim>
				</port>
			</output>
		</layer>
		<layer id="313" name="Constant_1500" type="Const" version="opset1">
			<data element_type="i64" shape="3" offset="3087504" size="24" />
			<output>
				<port id="0" precision="I64">
					<dim>3</dim>
				</port>
			</output>
		</layer>
		<layer id="314" name="/encoder/layers/encoder_layer_1/self_attention/Transpose_7" type="Transpose" version="opset1">
			<input>
				<port id="0" precision="FP32">
					<dim>197</dim>
					<dim>1</dim>
					<dim>768</dim>
				</port>
				<port id="1" precision="I64">
					<dim>3</dim>
				</port>
			</input>
			<output>
				<port id="2" precision="FP32" names="/encoder/layers/encoder_layer_1/self_attention/Transpose_7_output_0">
					<dim>1</dim>
					<dim>197</dim>
					<dim>768</dim>
				</port>
			</output>
		</layer>
		<layer id="315" name="/encoder/layers/encoder_layer_1/Add" type="Add" version="opset1">
			<data auto_broadcast="numpy" />
			<input>
				<port id="0" precision="FP32">
					<dim>1</dim>
					<dim>197</dim>
					<dim>768</dim>
				</port>
				<port id="1" precision="FP32">
					<dim>1</dim>
					<dim>197</dim>
					<dim>768</dim>
				</port>
			</input>
			<output>
				<port id="2" precision="FP32" names="/encoder/layers/encoder_layer_1/Add_output_0">
					<dim>1</dim>
					<dim>197</dim>
					<dim>768</dim>
				</port>
			</output>
		</layer>
		<layer id="316" name="Constant_51613" type="Const" version="opset1">
			<data element_type="f32" shape="1, 1, 768" offset="40870172" size="3072" />
			<output>
				<port id="0" precision="FP32">
					<dim>1</dim>
					<dim>1</dim>
					<dim>768</dim>
				</port>
			</output>
		</layer>
		<layer id="317" name="Constant_51612" type="Const" version="opset1">
			<data element_type="f32" shape="1, 1, 3072" offset="40873244" size="12288" />
			<output>
				<port id="0" precision="FP32">
					<dim>1</dim>
					<dim>1</dim>
					<dim>3072</dim>
				</port>
			</output>
		</layer>
		<layer id="318" name="Constant_1503" type="Const" version="opset1">
			<data element_type="i64" shape="1" offset="2476120" size="8" />
			<output>
				<port id="0" precision="I64">
					<dim>1</dim>
				</port>
			</output>
		</layer>
		<layer id="319" name="/encoder/layers/encoder_layer_1/ln_2/Div" type="MVN" version="opset6">
			<data eps="9.9999999747524271e-07" normalize_variance="true" eps_mode="INSIDE_SQRT" />
			<input>
				<port id="0" precision="FP32">
					<dim>1</dim>
					<dim>197</dim>
					<dim>768</dim>
				</port>
				<port id="1" precision="I64">
					<dim>1</dim>
				</port>
			</input>
			<output>
				<port id="2" precision="FP32" names="/encoder/layers/encoder_layer_1/ln_2/Div_output_0">
					<dim>1</dim>
					<dim>197</dim>
					<dim>768</dim>
				</port>
			</output>
		</layer>
		<layer id="320" name="Constant_51610" type="Const" version="opset1">
			<data element_type="f32" shape="1, 1, 768" offset="40885532" size="3072" />
			<output>
				<port id="0" precision="FP32">
					<dim>1</dim>
					<dim>1</dim>
					<dim>768</dim>
				</port>
			</output>
		</layer>
		<layer id="321" name="/encoder/layers/encoder_layer_1/ln_2/Mul" type="Multiply" version="opset1">
			<data auto_broadcast="numpy" />
			<input>
				<port id="0" precision="FP32">
					<dim>1</dim>
					<dim>197</dim>
					<dim>768</dim>
				</port>
				<port id="1" precision="FP32">
					<dim>1</dim>
					<dim>1</dim>
					<dim>768</dim>
				</port>
			</input>
			<output>
				<port id="2" precision="FP32" names="/encoder/layers/encoder_layer_1/ln_2/Mul_output_0">
					<dim>1</dim>
					<dim>197</dim>
					<dim>768</dim>
				</port>
			</output>
		</layer>
		<layer id="322" name="Constant_51611" type="Const" version="opset1">
			<data element_type="f32" shape="1, 1, 768" offset="40888604" size="3072" />
			<output>
				<port id="0" precision="FP32">
					<dim>1</dim>
					<dim>1</dim>
					<dim>768</dim>
				</port>
			</output>
		</layer>
		<layer id="323" name="/encoder/layers/encoder_layer_1/ln_2/Add_1" type="Add" version="opset1">
			<data auto_broadcast="numpy" />
			<input>
				<port id="0" precision="FP32">
					<dim>1</dim>
					<dim>197</dim>
					<dim>768</dim>
				</port>
				<port id="1" precision="FP32">
					<dim>1</dim>
					<dim>1</dim>
					<dim>768</dim>
				</port>
			</input>
			<output>
				<port id="2" precision="FP32" names="/encoder/layers/encoder_layer_1/ln_2/Add_1_output_0">
					<dim>1</dim>
					<dim>197</dim>
					<dim>768</dim>
				</port>
			</output>
		</layer>
		<layer id="324" name="Transpose_50738" type="Const" version="opset1">
			<data element_type="f32" shape="3072, 768" offset="40891676" size="9437184" />
			<output>
				<port id="0" precision="FP32">
					<dim>3072</dim>
					<dim>768</dim>
				</port>
			</output>
		</layer>
		<layer id="325" name="/encoder/layers/encoder_layer_1/mlp/mlp.0/MatMul" type="MatMul" version="opset1">
			<data transpose_a="false" transpose_b="true" />
			<input>
				<port id="0" precision="FP32">
					<dim>1</dim>
					<dim>197</dim>
					<dim>768</dim>
				</port>
				<port id="1" precision="FP32">
					<dim>3072</dim>
					<dim>768</dim>
				</port>
			</input>
			<output>
				<port id="2" precision="FP32" names="/encoder/layers/encoder_layer_1/mlp/mlp.0/MatMul_output_0">
					<dim>1</dim>
					<dim>197</dim>
					<dim>3072</dim>
				</port>
			</output>
		</layer>
		<layer id="326" name="/encoder/layers/encoder_layer_1/mlp/mlp.0/Add" type="Add" version="opset1">
			<data auto_broadcast="numpy" />
			<input>
				<port id="0" precision="FP32">
					<dim>1</dim>
					<dim>1</dim>
					<dim>3072</dim>
				</port>
				<port id="1" precision="FP32">
					<dim>1</dim>
					<dim>197</dim>
					<dim>3072</dim>
				</port>
			</input>
			<output>
				<port id="2" precision="FP32" names="/encoder/layers/encoder_layer_1/mlp/mlp.0/Add_output_0">
					<dim>1</dim>
					<dim>197</dim>
					<dim>3072</dim>
				</port>
			</output>
		</layer>
		<layer id="327" name="/encoder/layers/encoder_layer_1/mlp/mlp.1/Mul_1" type="Gelu" version="opset7">
			<data approximation_mode="ERF" />
			<input>
				<port id="0" precision="FP32">
					<dim>1</dim>
					<dim>197</dim>
					<dim>3072</dim>
				</port>
			</input>
			<output>
				<port id="1" precision="FP32" names="/encoder/layers/encoder_layer_1/mlp/mlp.1/Mul_1_output_0">
					<dim>1</dim>
					<dim>197</dim>
					<dim>3072</dim>
				</port>
			</output>
		</layer>
		<layer id="328" name="Transpose_50742" type="Const" version="opset1">
			<data element_type="f32" shape="768, 3072" offset="50328860" size="9437184" />
			<output>
				<port id="0" precision="FP32">
					<dim>768</dim>
					<dim>3072</dim>
				</port>
			</output>
		</layer>
		<layer id="329" name="/encoder/layers/encoder_layer_1/mlp/mlp.3/MatMul" type="MatMul" version="opset1">
			<data transpose_a="false" transpose_b="true" />
			<input>
				<port id="0" precision="FP32">
					<dim>1</dim>
					<dim>197</dim>
					<dim>3072</dim>
				</port>
				<port id="1" precision="FP32">
					<dim>768</dim>
					<dim>3072</dim>
				</port>
			</input>
			<output>
				<port id="2" precision="FP32" names="/encoder/layers/encoder_layer_1/mlp/mlp.3/MatMul_output_0">
					<dim>1</dim>
					<dim>197</dim>
					<dim>768</dim>
				</port>
			</output>
		</layer>
		<layer id="330" name="/encoder/layers/encoder_layer_1/mlp/mlp.3/Add" type="Add" version="opset1">
			<data auto_broadcast="numpy" />
			<input>
				<port id="0" precision="FP32">
					<dim>1</dim>
					<dim>1</dim>
					<dim>768</dim>
				</port>
				<port id="1" precision="FP32">
					<dim>1</dim>
					<dim>197</dim>
					<dim>768</dim>
				</port>
			</input>
			<output>
				<port id="2" precision="FP32" names="/encoder/layers/encoder_layer_1/mlp/mlp.3/Add_output_0">
					<dim>1</dim>
					<dim>197</dim>
					<dim>768</dim>
				</port>
			</output>
		</layer>
		<layer id="331" name="/encoder/layers/encoder_layer_1/Add_1" type="Add" version="opset1">
			<data auto_broadcast="numpy" />
			<input>
				<port id="0" precision="FP32">
					<dim>1</dim>
					<dim>197</dim>
					<dim>768</dim>
				</port>
				<port id="1" precision="FP32">
					<dim>1</dim>
					<dim>197</dim>
					<dim>768</dim>
				</port>
			</input>
			<output>
				<port id="2" precision="FP32" names="/encoder/layers/encoder_layer_1/Add_1_output_0">
					<dim>1</dim>
					<dim>197</dim>
					<dim>768</dim>
				</port>
			</output>
		</layer>
		<layer id="332" name="Constant_1529" type="Const" version="opset1">
			<data element_type="i64" shape="1" offset="2476120" size="8" />
			<output>
				<port id="0" precision="I64">
					<dim>1</dim>
				</port>
			</output>
		</layer>
		<layer id="333" name="/encoder/layers/encoder_layer_2/ln_1/Div" type="MVN" version="opset6">
			<data eps="9.9999999747524271e-07" normalize_variance="true" eps_mode="INSIDE_SQRT" />
			<input>
				<port id="0" precision="FP32">
					<dim>1</dim>
					<dim>197</dim>
					<dim>768</dim>
				</port>
				<port id="1" precision="I64">
					<dim>1</dim>
				</port>
			</input>
			<output>
				<port id="2" precision="FP32" names="/encoder/layers/encoder_layer_2/ln_1/Div_output_0">
					<dim>1</dim>
					<dim>197</dim>
					<dim>768</dim>
				</port>
			</output>
		</layer>
		<layer id="334" name="Constant_51614" type="Const" version="opset1">
			<data element_type="f32" shape="1, 1, 768" offset="59766044" size="3072" />
			<output>
				<port id="0" precision="FP32">
					<dim>1</dim>
					<dim>1</dim>
					<dim>768</dim>
				</port>
			</output>
		</layer>
		<layer id="335" name="/encoder/layers/encoder_layer_2/ln_1/Mul" type="Multiply" version="opset1">
			<data auto_broadcast="numpy" />
			<input>
				<port id="0" precision="FP32">
					<dim>1</dim>
					<dim>197</dim>
					<dim>768</dim>
				</port>
				<port id="1" precision="FP32">
					<dim>1</dim>
					<dim>1</dim>
					<dim>768</dim>
				</port>
			</input>
			<output>
				<port id="2" precision="FP32" names="/encoder/layers/encoder_layer_2/ln_1/Mul_output_0">
					<dim>1</dim>
					<dim>197</dim>
					<dim>768</dim>
				</port>
			</output>
		</layer>
		<layer id="336" name="Constant_51615" type="Const" version="opset1">
			<data element_type="f32" shape="1, 1, 768" offset="59769116" size="3072" />
			<output>
				<port id="0" precision="FP32">
					<dim>1</dim>
					<dim>1</dim>
					<dim>768</dim>
				</port>
			</output>
		</layer>
		<layer id="337" name="/encoder/layers/encoder_layer_2/ln_1/Add_1" type="Add" version="opset1">
			<data auto_broadcast="numpy" />
			<input>
				<port id="0" precision="FP32">
					<dim>1</dim>
					<dim>197</dim>
					<dim>768</dim>
				</port>
				<port id="1" precision="FP32">
					<dim>1</dim>
					<dim>1</dim>
					<dim>768</dim>
				</port>
			</input>
			<output>
				<port id="2" precision="FP32" names="/encoder/layers/encoder_layer_2/ln_1/Add_1_output_0">
					<dim>1</dim>
					<dim>197</dim>
					<dim>768</dim>
				</port>
			</output>
		</layer>
		<layer id="338" name="Constant_1542" type="Const" version="opset1">
			<data element_type="i64" shape="3" offset="3087504" size="24" />
			<output>
				<port id="0" precision="I64">
					<dim>3</dim>
				</port>
			</output>
		</layer>
		<layer id="339" name="/encoder/layers/encoder_layer_2/self_attention/Transpose" type="Transpose" version="opset1">
			<input>
				<port id="0" precision="FP32">
					<dim>1</dim>
					<dim>197</dim>
					<dim>768</dim>
				</port>
				<port id="1" precision="I64">
					<dim>3</dim>
				</port>
			</input>
			<output>
				<port id="2" precision="FP32" names="/encoder/layers/encoder_layer_2/self_attention/Transpose_output_0">
					<dim>197</dim>
					<dim>1</dim>
					<dim>768</dim>
				</port>
			</output>
		</layer>
		<layer id="340" name="Transpose_50746" type="Const" version="opset1">
			<data element_type="f32" shape="2304, 768" offset="59772188" size="7077888" />
			<output>
				<port id="0" precision="FP32">
					<dim>2304</dim>
					<dim>768</dim>
				</port>
			</output>
		</layer>
		<layer id="341" name="/encoder/layers/encoder_layer_2/self_attention/MatMul" type="MatMul" version="opset1">
			<data transpose_a="false" transpose_b="true" />
			<input>
				<port id="0" precision="FP32">
					<dim>197</dim>
					<dim>1</dim>
					<dim>768</dim>
				</port>
				<port id="1" precision="FP32">
					<dim>2304</dim>
					<dim>768</dim>
				</port>
			</input>
			<output>
				<port id="2" precision="FP32" names="/encoder/layers/encoder_layer_2/self_attention/MatMul_output_0">
					<dim>197</dim>
					<dim>1</dim>
					<dim>2304</dim>
				</port>
			</output>
		</layer>
		<layer id="342" name="/encoder/layers/encoder_layer_2/self_attention/Add" type="Add" version="opset1">
			<data auto_broadcast="numpy" />
			<input>
				<port id="0" precision="FP32">
					<dim>1</dim>
					<dim>1</dim>
					<dim>2304</dim>
				</port>
				<port id="1" precision="FP32">
					<dim>197</dim>
					<dim>1</dim>
					<dim>2304</dim>
				</port>
			</input>
			<output>
				<port id="2" precision="FP32" names="/encoder/layers/encoder_layer_2/self_attention/Add_output_0">
					<dim>197</dim>
					<dim>1</dim>
					<dim>2304</dim>
				</port>
			</output>
		</layer>
		<layer id="343" name="/encoder/layers/encoder_layer_2/self_attention/Shape_4" type="ShapeOf" version="opset3">
			<data output_type="i64" />
			<input>
				<port id="0" precision="FP32">
					<dim>197</dim>
					<dim>1</dim>
					<dim>2304</dim>
				</port>
			</input>
			<output>
				<port id="1" precision="I64" names="/encoder/layers/encoder_layer_2/self_attention/Shape_4_output_0">
					<dim>3</dim>
				</port>
			</output>
		</layer>
		<layer id="344" name="/encoder/layers/encoder_layer_2/self_attention/Constant_11" type="Const" version="opset1">
			<data element_type="i64" shape="1" offset="2476056" size="8" />
			<output>
				<port id="0" precision="I64" names="/encoder/layers/encoder_layer_2/self_attention/Constant_11_output_0">
					<dim>1</dim>
				</port>
			</output>
		</layer>
		<layer id="345" name="/encoder/layers/encoder_layer_2/self_attention/Reshape" type="Const" version="opset1">
			<data element_type="i64" shape="1" offset="2476072" size="8" />
			<output>
				<port id="0" precision="I64" names="/encoder/layers/encoder_layer_2/self_attention/Reshape_output_0">
					<dim>1</dim>
				</port>
			</output>
		</layer>
		<layer id="346" name="Broadcast_1590" type="Const" version="opset1">
			<data element_type="i64" shape="1" offset="10165416" size="8" />
			<output>
				<port id="0" precision="I64">
					<dim>1</dim>
				</port>
			</output>
		</layer>
		<layer id="347" name="/encoder/layers/encoder_layer_2/self_attention/Slice_1" type="StridedSlice" version="opset1">
			<data begin_mask="0" end_mask="0" new_axis_mask="" shrink_axis_mask="" ellipsis_mask="" />
			<input>
				<port id="0" precision="I64">
					<dim>3</dim>
				</port>
				<port id="1" precision="I64">
					<dim>1</dim>
				</port>
				<port id="2" precision="I64">
					<dim>1</dim>
				</port>
				<port id="3" precision="I64">
					<dim>1</dim>
				</port>
			</input>
			<output>
				<port id="4" precision="I64" names="/encoder/layers/encoder_layer_2/self_attention/Slice_1_output_0">
					<dim>2</dim>
				</port>
			</output>
		</layer>
		<layer id="348" name="/encoder/layers/encoder_layer_2/self_attention/Constant_8" type="Const" version="opset1">
			<data element_type="i64" shape="1" offset="2476088" size="8" />
			<output>
				<port id="0" precision="I64" names="/encoder/layers/encoder_layer_2/self_attention/Constant_8_output_0">
					<dim>1</dim>
				</port>
			</output>
		</layer>
		<layer id="349" name="/encoder/layers/encoder_layer_2/self_attention/Shape" type="ShapeOf" version="opset3">
			<data output_type="i64" />
			<input>
				<port id="0" precision="FP32">
					<dim>197</dim>
					<dim>1</dim>
					<dim>768</dim>
				</port>
			</input>
			<output>
				<port id="1" precision="I64" names="/encoder/layers/encoder_layer_2/self_attention/Shape_1_output_0,/encoder/layers/encoder_layer_2/self_attention/Shape_2_output_0,/encoder/layers/encoder_layer_2/self_attention/Shape_3_output_0,/encoder/layers/encoder_layer_2/self_attention/Shape_output_0">
					<dim>3</dim>
				</port>
			</output>
		</layer>
		<layer id="350" name="/encoder/layers/encoder_layer_2/self_attention/Constant_5" type="Const" version="opset1">
			<data element_type="i64" shape="1" offset="2476120" size="8" />
			<output>
				<port id="0" precision="I64" names="/encoder/layers/encoder_layer_2/self_attention/Constant_5_output_0">
					<dim>1</dim>
				</port>
			</output>
		</layer>
		<layer id="351" name="/encoder/layers/encoder_layer_2/self_attention/Constant_6" type="Const" version="opset1">
			<data element_type="i64" shape="1" offset="10165424" size="8" />
			<output>
				<port id="0" precision="I64" names="/encoder/layers/encoder_layer_2/self_attention/Constant_6_output_0">
					<dim>1</dim>
				</port>
			</output>
		</layer>
		<layer id="352" name="Broadcast_1566" type="Const" version="opset1">
			<data element_type="i64" shape="1" offset="10165416" size="8" />
			<output>
				<port id="0" precision="I64">
					<dim>1</dim>
				</port>
			</output>
		</layer>
		<layer id="353" name="/encoder/layers/encoder_layer_2/self_attention/Slice" type="StridedSlice" version="opset1">
			<data begin_mask="0" end_mask="0" new_axis_mask="" shrink_axis_mask="" ellipsis_mask="" />
			<input>
				<port id="0" precision="I64">
					<dim>3</dim>
				</port>
				<port id="1" precision="I64">
					<dim>1</dim>
				</port>
				<port id="2" precision="I64">
					<dim>1</dim>
				</port>
				<port id="3" precision="I64">
					<dim>1</dim>
				</port>
			</input>
			<output>
				<port id="4" precision="I64" names="/encoder/layers/encoder_layer_2/self_attention/Slice_output_0">
					<dim>1</dim>
				</port>
			</output>
		</layer>
		<layer id="354" name="/encoder/layers/encoder_layer_2/self_attention/Constant_7" type="Const" version="opset1">
			<data element_type="i64" shape="1" offset="2476056" size="8" />
			<output>
				<port id="0" precision="I64" names="/encoder/layers/encoder_layer_2/self_attention/Constant_7_output_0">
					<dim>1</dim>
				</port>
			</output>
		</layer>
		<layer id="355" name="/encoder/layers/encoder_layer_2/self_attention/Squeeze" type="Squeeze" version="opset1">
			<input>
				<port id="0" precision="I64">
					<dim>1</dim>
				</port>
				<port id="1" precision="I64">
					<dim>1</dim>
				</port>
			</input>
			<output>
				<port id="2" precision="I64" names="/encoder/layers/encoder_layer_2/self_attention/Squeeze_output_0" />
			</output>
		</layer>
		<layer id="356" name="Constant_1163" type="Const" version="opset1">
			<data element_type="i64" shape="1" offset="2476056" size="8" />
			<output>
				<port id="0" precision="I64" names="onnx::Unsqueeze_636">
					<dim>1</dim>
				</port>
			</output>
		</layer>
		<layer id="357" name="/encoder/layers/encoder_layer_2/self_attention/Unsqueeze" type="Unsqueeze" version="opset1">
			<input>
				<port id="0" precision="I64" />
				<port id="1" precision="I64">
					<dim>1</dim>
				</port>
			</input>
			<output>
				<port id="2" precision="I64" names="/encoder/layers/encoder_layer_2/self_attention/Unsqueeze_output_0">
					<dim>1</dim>
				</port>
			</output>
		</layer>
		<layer id="358" name="/encoder/layers/encoder_layer_2/self_attention/Concat" type="Concat" version="opset1">
			<data axis="0" />
			<input>
				<port id="0" precision="I64">
					<dim>1</dim>
				</port>
				<port id="1" precision="I64">
					<dim>1</dim>
				</port>
			</input>
			<output>
				<port id="2" precision="I64" names="/encoder/layers/encoder_layer_2/self_attention/Concat_output_0">
					<dim>2</dim>
				</port>
			</output>
		</layer>
		<layer id="359" name="/encoder/layers/encoder_layer_2/self_attention/Concat_1" type="Concat" version="opset1">
			<data axis="0" />
			<input>
				<port id="0" precision="I64">
					<dim>2</dim>
				</port>
				<port id="1" precision="I64">
					<dim>2</dim>
				</port>
			</input>
			<output>
				<port id="2" precision="I64" names="/encoder/layers/encoder_layer_2/self_attention/Concat_1_output_0">
					<dim>4</dim>
				</port>
			</output>
		</layer>
		<layer id="360" name="/encoder/layers/encoder_layer_2/self_attention/Reshape_2" type="Reshape" version="opset1">
			<data special_zero="true" />
			<input>
				<port id="0" precision="FP32">
					<dim>197</dim>
					<dim>1</dim>
					<dim>2304</dim>
				</port>
				<port id="1" precision="I64">
					<dim>4</dim>
				</port>
			</input>
			<output>
				<port id="2" precision="FP32" names="/encoder/layers/encoder_layer_2/self_attention/Reshape_2_output_0">
					<dim>197</dim>
					<dim>1</dim>
					<dim>3</dim>
					<dim>768</dim>
				</port>
			</output>
		</layer>
		<layer id="361" name="/encoder/layers/encoder_layer_2/self_attention/Constant_16" type="Const" version="opset1">
			<data element_type="i64" shape="1" offset="2476056" size="8" />
			<output>
				<port id="0" precision="I64" names="/encoder/layers/encoder_layer_2/self_attention/Constant_16_output_0">
					<dim>1</dim>
				</port>
			</output>
		</layer>
		<layer id="362" name="/encoder/layers/encoder_layer_2/self_attention/Unsqueeze_1" type="Unsqueeze" version="opset1">
			<input>
				<port id="0" precision="FP32">
					<dim>197</dim>
					<dim>1</dim>
					<dim>3</dim>
					<dim>768</dim>
				</port>
				<port id="1" precision="I64">
					<dim>1</dim>
				</port>
			</input>
			<output>
				<port id="2" precision="FP32" names="/encoder/layers/encoder_layer_2/self_attention/Unsqueeze_1_output_0">
					<dim>1</dim>
					<dim>197</dim>
					<dim>1</dim>
					<dim>3</dim>
					<dim>768</dim>
				</port>
			</output>
		</layer>
		<layer id="363" name="Constant_50192" type="Const" version="opset1">
			<data element_type="i64" shape="1" offset="2476056" size="8" />
			<output>
				<port id="0" precision="I64">
					<dim>1</dim>
				</port>
			</output>
		</layer>
		<layer id="364" name="Squeeze_50193" type="Squeeze" version="opset1">
			<input>
				<port id="0" precision="FP32">
					<dim>1</dim>
					<dim>197</dim>
					<dim>1</dim>
					<dim>3</dim>
					<dim>768</dim>
				</port>
				<port id="1" precision="I64">
					<dim>1</dim>
…
		<edge from-layer="1085" from-port="0" to-layer="1087" to-port="1" />
		<edge from-layer="1086" from-port="0" to-layer="1087" to-port="2" />
		<edge from-layer="1087" from-port="3" to-layer="1088" to-port="2" />
		<edge from-layer="1088" from-port="4" to-layer="1089" to-port="1" />
		<edge from-layer="1088" from-port="4" to-layer="1101" to-port="1" />
		<edge from-layer="1089" from-port="2" to-layer="1091" to-port="0" />
		<edge from-layer="1090" from-port="0" to-layer="1091" to-port="1" />
		<edge from-layer="1091" from-port="2" to-layer="1093" to-port="0" />
		<edge from-layer="1092" from-port="1" to-layer="1093" to-port="1" />
		<edge from-layer="1093" from-port="2" to-layer="1094" to-port="1" />
		<edge from-layer="1094" from-port="2" to-layer="1095" to-port="0" />
		<edge from-layer="1095" from-port="1" to-layer="1102" to-port="0" />
		<edge from-layer="1096" from-port="0" to-layer="1097" to-port="2" />
		<edge from-layer="1097" from-port="3" to-layer="1098" to-port="0" />
		<edge from-layer="1098" from-port="2" to-layer="1100" to-port="0" />
		<edge from-layer="1099" from-port="0" to-layer="1100" to-port="1" />
		<edge from-layer="1100" from-port="2" to-layer="1101" to-port="0" />
		<edge from-layer="1101" from-port="2" to-layer="1102" to-port="1" />
		<edge from-layer="1102" from-port="2" to-layer="1104" to-port="0" />
		<edge from-layer="1103" from-port="0" to-layer="1104" to-port="1" />
		<edge from-layer="1104" from-port="2" to-layer="1106" to-port="0" />
		<edge from-layer="1105" from-port="0" to-layer="1106" to-port="1" />
		<edge from-layer="1106" from-port="2" to-layer="1108" to-port="0" />
		<edge from-layer="1107" from-port="0" to-layer="1108" to-port="1" />
		<edge from-layer="1108" from-port="2" to-layer="1110" to-port="0" />
		<edge from-layer="1109" from-port="0" to-layer="1110" to-port="1" />
		<edge from-layer="1110" from-port="2" to-layer="1111" to-port="0" />
		<edge from-layer="1110" from-port="2" to-layer="1116" to-port="0" />
		<edge from-layer="1111" from-port="1" to-layer="1114" to-port="0" />
		<edge from-layer="1112" from-port="0" to-layer="1114" to-port="1" />
		<edge from-layer="1113" from-port="0" to-layer="1114" to-port="2" />
		<edge from-layer="1114" from-port="3" to-layer="1115" to-port="2" />
		<edge from-layer="1115" from-port="3" to-layer="1116" to-port="1" />
		<edge from-layer="1116" from-port="2" to-layer="1118" to-port="0" />
		<edge from-layer="1117" from-port="0" to-layer="1118" to-port="1" />
		<edge from-layer="1118" from-port="2" to-layer="1119" to-port="0" />
		<edge from-layer="1119" from-port="2" to-layer="1135" to-port="0" />
		<edge from-layer="1119" from-port="2" to-layer="1123" to-port="0" />
		<edge from-layer="1120" from-port="0" to-layer="1134" to-port="0" />
		<edge from-layer="1121" from-port="0" to-layer="1130" to-port="0" />
		<edge from-layer="1122" from-port="0" to-layer="1123" to-port="1" />
		<edge from-layer="1123" from-port="2" to-layer="1125" to-port="0" />
		<edge from-layer="1124" from-port="0" to-layer="1125" to-port="1" />
		<edge from-layer="1125" from-port="2" to-layer="1127" to-port="0" />
		<edge from-layer="1126" from-port="0" to-layer="1127" to-port="1" />
		<edge from-layer="1127" from-port="2" to-layer="1129" to-port="0" />
		<edge from-layer="1128" from-port="0" to-layer="1129" to-port="1" />
		<edge from-layer="1129" from-port="2" to-layer="1130" to-port="1" />
		<edge from-layer="1130" from-port="2" to-layer="1131" to-port="0" />
		<edge from-layer="1131" from-port="1" to-layer="1133" to-port="0" />
		<edge from-layer="1132" from-port="0" to-layer="1133" to-port="1" />
		<edge from-layer="1133" from-port="2" to-layer="1134" to-port="1" />
		<edge from-layer="1134" from-port="2" to-layer="1135" to-port="1" />
		<edge from-layer="1135" from-port="2" to-layer="1137" to-port="0" />
		<edge from-layer="1135" from-port="2" to-layer="1253" to-port="1" />
		<edge from-layer="1136" from-port="0" to-layer="1137" to-port="1" />
		<edge from-layer="1137" from-port="2" to-layer="1139" to-port="0" />
		<edge from-layer="1138" from-port="0" to-layer="1139" to-port="1" />
		<edge from-layer="1139" from-port="2" to-layer="1141" to-port="0" />
		<edge from-layer="1140" from-port="0" to-layer="1141" to-port="1" />
		<edge from-layer="1141" from-port="2" to-layer="1143" to-port="0" />
		<edge from-layer="1142" from-port="0" to-layer="1143" to-port="1" />
		<edge from-layer="1143" from-port="2" to-layer="1145" to-port="0" />
		<edge from-layer="1143" from-port="2" to-layer="1153" to-port="0" />
		<edge from-layer="1144" from-port="0" to-layer="1145" to-port="1" />
		<edge from-layer="1145" from-port="2" to-layer="1146" to-port="1" />
		<edge from-layer="1146" from-port="2" to-layer="1147" to-port="0" />
		<edge from-layer="1146" from-port="2" to-layer="1164" to-port="0" />
		<edge from-layer="1147" from-port="1" to-layer="1151" to-port="0" />
		<edge from-layer="1148" from-port="0" to-layer="1151" to-port="1" />
		<edge from-layer="1149" from-port="0" to-layer="1151" to-port="2" />
		<edge from-layer="1150" from-port="0" to-layer="1151" to-port="3" />
		<edge from-layer="1151" from-port="4" to-layer="1163" to-port="0" />
		<edge from-layer="1152" from-port="0" to-layer="1162" to-port="0" />
		<edge from-layer="1153" from-port="1" to-layer="1185" to-port="0" />
		<edge from-layer="1153" from-port="1" to-layer="1178" to-port="0" />
		<edge from-layer="1153" from-port="1" to-layer="1175" to-port="0" />
		<edge from-layer="1153" from-port="1" to-layer="1157" to-port="0" />
		<edge from-layer="1154" from-port="0" to-layer="1157" to-port="1" />
		<edge from-layer="1155" from-port="0" to-layer="1157" to-port="2" />
		<edge from-layer="1156" from-port="0" to-layer="1157" to-port="3" />
		<edge from-layer="1157" from-port="4" to-layer="1159" to-port="0" />
		<edge from-layer="1158" from-port="0" to-layer="1159" to-port="1" />
		<edge from-layer="1159" from-port="2" to-layer="1161" to-port="0" />
		<edge from-layer="1160" from-port="0" to-layer="1161" to-port="1" />
		<edge from-layer="1161" from-port="2" to-layer="1162" to-port="1" />
		<edge from-layer="1162" from-port="2" to-layer="1163" to-port="1" />
		<edge from-layer="1163" from-port="2" to-layer="1164" to-port="1" />
		<edge from-layer="1164" from-port="2" to-layer="1166" to-port="0" />
		<edge from-layer="1165" from-port="0" to-layer="1166" to-port="1" />
		<edge from-layer="1166" from-port="2" to-layer="1168" to-port="0" />
		<edge from-layer="1167" from-port="0" to-layer="1168" to-port="1" />
		<edge from-layer="1168" from-port="2" to-layer="1170" to-port="0" />
		<edge from-layer="1169" from-port="0" to-layer="1170" to-port="1" />
		<edge from-layer="1170" from-port="2" to-layer="1231" to-port="0" />
		<edge from-layer="1170" from-port="2" to-layer="1172" to-port="0" />
		<edge from-layer="1170" from-port="2" to-layer="1211" to-port="0" />
		<edge from-layer="1171" from-port="0" to-layer="1172" to-port="2" />
		<edge from-layer="1172" from-port="3" to-layer="1191" to-port="0" />
		<edge from-layer="1173" from-port="0" to-layer="1175" to-port="1" />
		<edge from-layer="1174" from-port="0" to-layer="1175" to-port="2" />
		<edge from-layer="1175" from-port="3" to-layer="1190" to-port="0" />
		<edge from-layer="1175" from-port="3" to-layer="1197" to-port="2" />
		<edge from-layer="1175" from-port="3" to-layer="1249" to-port="0" />
		<edge from-layer="1176" from-port="0" to-layer="1178" to-port="1" />
		<edge from-layer="1177" from-port="0" to-layer="1178" to-port="2" />
		<edge from-layer="1178" from-port="3" to-layer="1180" to-port="0" />
		<edge from-layer="1178" from-port="3" to-layer="1195" to-port="0" />
		<edge from-layer="1179" from-port="0" to-layer="1180" to-port="1" />
		<edge from-layer="1180" from-port="2" to-layer="1182" to-port="0" />
		<edge from-layer="1181" from-port="0" to-layer="1182" to-port="1" />
		<edge from-layer="1182" from-port="2" to-layer="1190" to-port="1" />
		<edge from-layer="1182" from-port="2" to-layer="1213" to-port="1" />
		<edge from-layer="1183" from-port="0" to-layer="1185" to-port="1" />
		<edge from-layer="1184" from-port="0" to-layer="1185" to-port="2" />
		<edge from-layer="1185" from-port="3" to-layer="1187" to-port="0" />
		<edge from-layer="1186" from-port="0" to-layer="1187" to-port="1" />
		<edge from-layer="1187" from-port="2" to-layer="1189" to-port="0" />
		<edge from-layer="1188" from-port="0" to-layer="1189" to-port="1" />
		<edge from-layer="1189" from-port="2" to-layer="1190" to-port="2" />
		<edge from-layer="1189" from-port="2" to-layer="1197" to-port="3" />
		<edge from-layer="1189" from-port="2" to-layer="1213" to-port="2" />
		<edge from-layer="1189" from-port="2" to-layer="1222" to-port="3" />
		<edge from-layer="1190" from-port="3" to-layer="1191" to-port="1" />
		<edge from-layer="1191" from-port="2" to-layer="1193" to-port="0" />
		<edge from-layer="1192" from-port="0" to-layer="1193" to-port="1" />
		<edge from-layer="1193" from-port="2" to-layer="1198" to-port="0" />
		<edge from-layer="1194" from-port="0" to-layer="1195" to-port="1" />
		<edge from-layer="1195" from-port="2" to-layer="1197" to-port="0" />
		<edge from-layer="1195" from-port="2" to-layer="1249" to-port="1" />
		<edge from-layer="1195" from-port="2" to-layer="1222" to-port="0" />
		<edge from-layer="1196" from-port="0" to-layer="1197" to-port="1" />
		<edge from-layer="1197" from-port="4" to-layer="1198" to-port="1" />
		<edge from-layer="1198" from-port="2" to-layer="1200" to-port="0" />
		<edge from-layer="1198" from-port="2" to-layer="1209" to-port="0" />
		<edge from-layer="1199" from-port="0" to-layer="1207" to-port="0" />
		<edge from-layer="1200" from-port="1" to-layer="1204" to-port="0" />
		<edge from-layer="1201" from-port="0" to-layer="1204" to-port="1" />
		<edge from-layer="1202" from-port="0" to-layer="1204" to-port="2" />
		<edge from-layer="1203" from-port="0" to-layer="1204" to-port="3" />
		<edge from-layer="1204" from-port="4" to-layer="1205" to-port="0" />
		<edge from-layer="1205" from-port="1" to-layer="1206" to-port="0" />
		<edge from-layer="1206" from-port="1" to-layer="1207" to-port="1" />
		<edge from-layer="1207" from-port="2" to-layer="1226" to-port="0" />
		<edge from-layer="1207" from-port="2" to-layer="1208" to-port="0" />
		<edge from-layer="1208" from-port="1" to-layer="1209" to-port="1" />
		<edge from-layer="1209" from-port="2" to-layer="1228" to-port="0" />
		<edge from-layer="1210" from-port="0" to-layer="1211" to-port="2" />
		<edge from-layer="1211" from-port="3" to-layer="1214" to-port="0" />
		<edge from-layer="1212" from-port="0" to-layer="1213" to-port="0" />
		<edge from-layer="1213" from-port="3" to-layer="1214" to-port="1" />
		<edge from-layer="1213" from-port="3" to-layer="1232" to-port="1" />
		<edge from-layer="1214" from-port="2" to-layer="1216" to-port="0" />
		<edge from-layer="1215" from-port="0" to-layer="1216" to-port="1" />
		<edge from-layer="1216" from-port="2" to-layer="1218" to-port="0" />
		<edge from-layer="1216" from-port="2" to-layer="1223" to-port="0" />
		<edge from-layer="1217" from-port="0" to-layer="1222" to-port="1" />
		<edge from-layer="1218" from-port="1" to-layer="1221" to-port="0" />
		<edge from-layer="1219" from-port="0" to-layer="1221" to-port="1" />
		<edge from-layer="1220" from-port="0" to-layer="1221" to-port="2" />
		<edge from-layer="1221" from-port="3" to-layer="1222" to-port="2" />
		<edge from-layer="1222" from-port="4" to-layer="1223" to-port="1" />
		<edge from-layer="1222" from-port="4" to-layer="1235" to-port="1" />
		<edge from-layer="1223" from-port="2" to-layer="1225" to-port="0" />
		<edge from-layer="1224" from-port="0" to-layer="1225" to-port="1" />
		<edge from-layer="1225" from-port="2" to-layer="1227" to-port="0" />
		<edge from-layer="1226" from-port="1" to-layer="1227" to-port="1" />
		<edge from-layer="1227" from-port="2" to-layer="1228" to-port="1" />
		<edge from-layer="1228" from-port="2" to-layer="1229" to-port="0" />
		<edge from-layer="1229" from-port="1" to-layer="1236" to-port="0" />
		<edge from-layer="1230" from-port="0" to-layer="1231" to-port="2" />
		<edge from-layer="1231" from-port="3" to-layer="1232" to-port="0" />
		<edge from-layer="1232" from-port="2" to-layer="1234" to-port="0" />
		<edge from-layer="1233" from-port="0" to-layer="1234" to-port="1" />
		<edge from-layer="1234" from-port="2" to-layer="1235" to-port="0" />
		<edge from-layer="1235" from-port="2" to-layer="1236" to-port="1" />
		<edge from-layer="1236" from-port="2" to-layer="1238" to-port="0" />
		<edge from-layer="1237" from-port="0" to-layer="1238" to-port="1" />
		<edge from-layer="1238" from-port="2" to-layer="1240" to-port="0" />
		<edge from-layer="1239" from-port="0" to-layer="1240" to-port="1" />
		<edge from-layer="1240" from-port="2" to-layer="1242" to-port="0" />
		<edge from-layer="1241" from-port="0" to-layer="1242" to-port="1" />
		<edge from-layer="1242" from-port="2" to-layer="1244" to-port="0" />
		<edge from-layer="1243" from-port="0" to-layer="1244" to-port="1" />
		<edge from-layer="1244" from-port="2" to-layer="1245" to-port="0" />
		<edge from-layer="1244" from-port="2" to-layer="1250" to-port="0" />
		<edge from-layer="1245" from-port="1" to-layer="1248" to-port="0" />
		<edge from-layer="1246" from-port="0" to-layer="1248" to-port="1" />
		<edge from-layer="1247" from-port="0" to-layer="1248" to-port="2" />
		<edge from-layer="1248" from-port="3" to-layer="1249" to-port="2" />
		<edge from-layer="1249" from-port="3" to-layer="1250" to-port="1" />
		<edge from-layer="1250" from-port="2" to-layer="1252" to-port="0" />
		<edge from-layer="1251" from-port="0" to-layer="1252" to-port="1" />
		<edge from-layer="1252" from-port="2" to-layer="1253" to-port="0" />
		<edge from-layer="1253" from-port="2" to-layer="1257" to-port="0" />
		<edge from-layer="1253" from-port="2" to-layer="1269" to-port="0" />
		<edge from-layer="1254" from-port="0" to-layer="1268" to-port="0" />
		<edge from-layer="1255" from-port="0" to-layer="1264" to-port="0" />
		<edge from-layer="1256" from-port="0" to-layer="1257" to-port="1" />
		<edge from-layer="1257" from-port="2" to-layer="1259" to-port="0" />
		<edge from-layer="1258" from-port="0" to-layer="1259" to-port="1" />
		<edge from-layer="1259" from-port="2" to-layer="1261" to-port="0" />
		<edge from-layer="1260" from-port="0" to-layer="1261" to-port="1" />
		<edge from-layer="1261" from-port="2" to-layer="1263" to-port="0" />
		<edge from-layer="1262" from-port="0" to-layer="1263" to-port="1" />
		<edge from-layer="1263" from-port="2" to-layer="1264" to-port="1" />
		<edge from-layer="1264" from-port="2" to-layer="1265" to-port="0" />
		<edge from-layer="1265" from-port="1" to-layer="1267" to-port="0" />
		<edge from-layer="1266" from-port="0" to-layer="1267" to-port="1" />
		<edge from-layer="1267" from-port="2" to-layer="1268" to-port="1" />
		<edge from-layer="1268" from-port="2" to-layer="1269" to-port="1" />
		<edge from-layer="1269" from-port="2" to-layer="1387" to-port="1" />
		<edge from-layer="1269" from-port="2" to-layer="1271" to-port="0" />
		<edge from-layer="1270" from-port="0" to-layer="1271" to-port="1" />
		<edge from-layer="1271" from-port="2" to-layer="1273" to-port="0" />
		<edge from-layer="1272" from-port="0" to-layer="1273" to-port="1" />
		<edge from-layer="1273" from-port="2" to-layer="1275" to-port="0" />
		<edge from-layer="1274" from-port="0" to-layer="1275" to-port="1" />
		<edge from-layer="1275" from-port="2" to-layer="1277" to-port="0" />
		<edge from-layer="1276" from-port="0" to-layer="1277" to-port="1" />
		<edge from-layer="1277" from-port="2" to-layer="1287" to-port="0" />
		<edge from-layer="1277" from-port="2" to-layer="1279" to-port="0" />
		<edge from-layer="1278" from-port="0" to-layer="1279" to-port="1" />
		<edge from-layer="1279" from-port="2" to-layer="1280" to-port="1" />
		<edge from-layer="1280" from-port="2" to-layer="1281" to-port="0" />
		<edge from-layer="1280" from-port="2" to-layer="1298" to-port="0" />
		<edge from-layer="1281" from-port="1" to-layer="1285" to-port="0" />
		<edge from-layer="1282" from-port="0" to-layer="1285" to-port="1" />
		<edge from-layer="1283" from-port="0" to-layer="1285" to-port="2" />
		<edge from-layer="1284" from-port="0" to-layer="1285" to-port="3" />
		<edge from-layer="1285" from-port="4" to-layer="1297" to-port="0" />
		<edge from-layer="1286" from-port="0" to-layer="1296" to-port="0" />
		<edge from-layer="1287" from-port="1" to-layer="1312" to-port="0" />
		<edge from-layer="1287" from-port="1" to-layer="1319" to-port="0" />
		<edge from-layer="1287" from-port="1" to-layer="1291" to-port="0" />
		<edge from-layer="1287" from-port="1" to-layer="1309" to-port="0" />
		<edge from-layer="1288" from-port="0" to-layer="1291" to-port="1" />
		<edge from-layer="1289" from-port="0" to-layer="1291" to-port="2" />
		<edge from-layer="1290" from-port="0" to-layer="1291" to-port="3" />
		<edge from-layer="1291" from-port="4" to-layer="1293" to-port="0" />
		<edge from-layer="1292" from-port="0" to-layer="1293" to-port="1" />
		<edge from-layer="1293" from-port="2" to-layer="1295" to-port="0" />
		<edge from-layer="1294" from-port="0" to-layer="1295" to-port="1" />
		<edge from-layer="1295" from-port="2" to-layer="1296" to-port="1" />
		<edge from-layer="1296" from-port="2" to-layer="1297" to-port="1" />
		<edge from-layer="1297" from-port="2" to-layer="1298" to-port="1" />
		<edge from-layer="1298" from-port="2" to-layer="1300" to-port="0" />
		<edge from-layer="1299" from-port="0" to-layer="1300" to-port="1" />
		<edge from-layer="1300" from-port="2" to-layer="1302" to-port="0" />
		<edge from-layer="1301" from-port="0" to-layer="1302" to-port="1" />
		<edge from-layer="1302" from-port="2" to-layer="1304" to-port="0" />
		<edge from-layer="1303" from-port="0" to-layer="1304" to-port="1" />
		<edge from-layer="1304" from-port="2" to-layer="1345" to-port="0" />
		<edge from-layer="1304" from-port="2" to-layer="1306" to-port="0" />
		<edge from-layer="1304" from-port="2" to-layer="1365" to-port="0" />
		<edge from-layer="1305" from-port="0" to-layer="1306" to-port="2" />
		<edge from-layer="1306" from-port="3" to-layer="1325" to-port="0" />
		<edge from-layer="1307" from-port="0" to-layer="1309" to-port="1" />
		<edge from-layer="1308" from-port="0" to-layer="1309" to-port="2" />
		<edge from-layer="1309" from-port="3" to-layer="1331" to-port="2" />
		<edge from-layer="1309" from-port="3" to-layer="1324" to-port="0" />
		<edge from-layer="1309" from-port="3" to-layer="1383" to-port="0" />
		<edge from-layer="1310" from-port="0" to-layer="1312" to-port="1" />
		<edge from-layer="1311" from-port="0" to-layer="1312" to-port="2" />
		<edge from-layer="1312" from-port="3" to-layer="1314" to-port="0" />
		<edge from-layer="1312" from-port="3" to-layer="1329" to-port="0" />
		<edge from-layer="1313" from-port="0" to-layer="1314" to-port="1" />
		<edge from-layer="1314" from-port="2" to-layer="1316" to-port="0" />
		<edge from-layer="1315" from-port="0" to-layer="1316" to-port="1" />
		<edge from-layer="1316" from-port="2" to-layer="1347" to-port="1" />
		<edge from-layer="1316" from-port="2" to-layer="1324" to-port="1" />
		<edge from-layer="1317" from-port="0" to-layer="1319" to-port="1" />
		<edge from-layer="1318" from-port="0" to-layer="1319" to-port="2" />
		<edge from-layer="1319" from-port="3" to-layer="1321" to-port="0" />
		<edge from-layer="1320" from-port="0" to-layer="1321" to-port="1" />
		<edge from-layer="1321" from-port="2" to-layer="1323" to-port="0" />
		<edge from-layer="1322" from-port="0" to-layer="1323" to-port="1" />
		<edge from-layer="1323" from-port="2" to-layer="1324" to-port="2" />
		<edge from-layer="1323" from-port="2" to-layer="1331" to-port="3" />
		<edge from-layer="1323" from-port="2" to-layer="1347" to-port="2" />
		<edge from-layer="1323" from-port="2" to-layer="1356" to-port="3" />
		<edge from-layer="1324" from-port="3" to-layer="1325" to-port="1" />
		<edge from-layer="1325" from-port="2" to-layer="1327" to-port="0" />
		<edge from-layer="1326" from-port="0" to-layer="1327" to-port="1" />
		<edge from-layer="1327" from-port="2" to-layer="1332" to-port="0" />
		<edge from-layer="1328" from-port="0" to-layer="1329" to-port="1" />
		<edge from-layer="1329" from-port="2" to-layer="1331" to-port="0" />
		<edge from-layer="1329" from-port="2" to-layer="1383" to-port="1" />
		<edge from-layer="1329" from-port="2" to-layer="1356" to-port="0" />
		<edge from-layer="1330" from-port="0" to-layer="1331" to-port="1" />
		<edge from-layer="1331" from-port="4" to-layer="1332" to-port="1" />
		<edge from-layer="1332" from-port="2" to-layer="1343" to-port="0" />
		<edge from-layer="1332" from-port="2" to-layer="1334" to-port="0" />
		<edge from-layer="1333" from-port="0" to-layer="1341" to-port="0" />
		<edge from-layer="1334" from-port="1" to-layer="1338" to-port="0" />
		<edge from-layer="1335" from-port="0" to-layer="1338" to-port="1" />
		<edge from-layer="1336" from-port="0" to-layer="1338" to-port="2" />
		<edge from-layer="1337" from-port="0" to-layer="1338" to-port="3" />
		<edge from-layer="1338" from-port="4" to-layer="1339" to-port="0" />
		<edge from-layer="1339" from-port="1" to-layer="1340" to-port="0" />
		<edge from-layer="1340" from-port="1" to-layer="1341" to-port="1" />
		<edge from-layer="1341" from-port="2" to-layer="1342" to-port="0" />
		<edge from-layer="1341" from-port="2" to-layer="1360" to-port="0" />
		<edge from-layer="1342" from-port="1" to-layer="1343" to-port="1" />
		<edge from-layer="1343" from-port="2" to-layer="1362" to-port="0" />
		<edge from-layer="1344" from-port="0" to-layer="1345" to-port="2" />
		<edge from-layer="1345" from-port="3" to-layer="1348" to-port="0" />
		<edge from-layer="1346" from-port="0" to-layer="1347" to-port="0" />
		<edge from-layer="1347" from-port="3" to-layer="1348" to-port="1" />
		<edge from-layer="1347" from-port="3" to-layer="1366" to-port="1" />
		<edge from-layer="1348" from-port="2" to-layer="1350" to-port="0" />
		<edge from-layer="1349" from-port="0" to-layer="1350" to-port="1" />
		<edge from-layer="1350" from-port="2" to-layer="1352" to-port="0" />
		<edge from-layer="1350" from-port="2" to-layer="1357" to-port="0" />
		<edge from-layer="1351" from-port="0" to-layer="1356" to-port="1" />
		<edge from-layer="1352" from-port="1" to-layer="1355" to-port="0" />
		<edge from-layer="1353" from-port="0" to-layer="1355" to-port="1" />
		<edge from-layer="1354" from-port="0" to-layer="1355" to-port="2" />
		<edge from-layer="1355" from-port="3" to-layer="1356" to-port="2" />
		<edge from-layer="1356" from-port="4" to-layer="1369" to-port="1" />
		<edge from-layer="1356" from-port="4" to-layer="1357" to-port="1" />
		<edge from-layer="1357" from-port="2" to-layer="1359" to-port="0" />
		<edge from-layer="1358" from-port="0" to-layer="1359" to-port="1" />
		<edge from-layer="1359" from-port="2" to-layer="1361" to-port="0" />
		<edge from-layer="1360" from-port="1" to-layer="1361" to-port="1" />
		<edge from-layer="1361" from-port="2" to-layer="1362" to-port="1" />
		<edge from-layer="1362" from-port="2" to-layer="1363" to-port="0" />
		<edge from-layer="1363" from-port="1" to-layer="1370" to-port="0" />
		<edge from-layer="1364" from-port="0" to-layer="1365" to-port="2" />
		<edge from-layer="1365" from-port="3" to-layer="1366" to-port="0" />
		<edge from-layer="1366" from-port="2" to-layer="1368" to-port="0" />
		<edge from-layer="1367" from-port="0" to-layer="1368" to-port="1" />
		<edge from-layer="1368" from-port="2" to-layer="1369" to-port="0" />
		<edge from-layer="1369" from-port="2" to-layer="1370" to-port="1" />
		<edge from-layer="1370" from-port="2" to-layer="1372" to-port="0" />
		<edge from-layer="1371" from-port="0" to-layer="1372" to-port="1" />
		<edge from-layer="1372" from-port="2" to-layer="1374" to-port="0" />
		<edge from-layer="1373" from-port="0" to-layer="1374" to-port="1" />
		<edge from-layer="1374" from-port="2" to-layer="1376" to-port="0" />
		<edge from-layer="1375" from-port="0" to-layer="1376" to-port="1" />
		<edge from-layer="1376" from-port="2" to-layer="1378" to-port="0" />
		<edge from-layer="1377" from-port="0" to-layer="1378" to-port="1" />
		<edge from-layer="1378" from-port="2" to-layer="1379" to-port="0" />
		<edge from-layer="1378" from-port="2" to-layer="1384" to-port="0" />
		<edge from-layer="1379" from-port="1" to-layer="1382" to-port="0" />
		<edge from-layer="1380" from-port="0" to-layer="1382" to-port="1" />
		<edge from-layer="1381" from-port="0" to-layer="1382" to-port="2" />
		<edge from-layer="1382" from-port="3" to-layer="1383" to-port="2" />
		<edge from-layer="1383" from-port="3" to-layer="1384" to-port="1" />
		<edge from-layer="1384" from-port="2" to-layer="1386" to-port="0" />
		<edge from-layer="1385" from-port="0" to-layer="1386" to-port="1" />
		<edge from-layer="1386" from-port="2" to-layer="1387" to-port="0" />
		<edge from-layer="1387" from-port="2" to-layer="1403" to-port="0" />
		<edge from-layer="1387" from-port="2" to-layer="1391" to-port="0" />
		<edge from-layer="1388" from-port="0" to-layer="1402" to-port="0" />
		<edge from-layer="1389" from-port="0" to-layer="1398" to-port="0" />
		<edge from-layer="1390" from-port="0" to-layer="1391" to-port="1" />
		<edge from-layer="1391" from-port="2" to-layer="1393" to-port="0" />
		<edge from-layer="1392" from-port="0" to-layer="1393" to-port="1" />
		<edge from-layer="1393" from-port="2" to-layer="1395" to-port="0" />
		<edge from-layer="1394" from-port="0" to-layer="1395" to-port="1" />
		<edge from-layer="1395" from-port="2" to-layer="1397" to-port="0" />
		<edge from-layer="1396" from-port="0" to-layer="1397" to-port="1" />
		<edge from-layer="1397" from-port="2" to-layer="1398" to-port="1" />
		<edge from-layer="1398" from-port="2" to-layer="1399" to-port="0" />
		<edge from-layer="1399" from-port="1" to-layer="1401" to-port="0" />
		<edge from-layer="1400" from-port="0" to-layer="1401" to-port="1" />
		<edge from-layer="1401" from-port="2" to-layer="1402" to-port="1" />
		<edge from-layer="1402" from-port="2" to-layer="1403" to-port="1" />
		<edge from-layer="1403" from-port="2" to-layer="1405" to-port="0" />
		<edge from-layer="1403" from-port="2" to-layer="1521" to-port="1" />
		<edge from-layer="1404" from-port="0" to-layer="1405" to-port="1" />
		<edge from-layer="1405" from-port="2" to-layer="1407" to-port="0" />
		<edge from-layer="1406" from-port="0" to-layer="1407" to-port="1" />
		<edge from-layer="1407" from-port="2" to-layer="1409" to-port="0" />
		<edge from-layer="1408" from-port="0" to-layer="1409" to-port="1" />
		<edge from-layer="1409" from-port="2" to-layer="1411" to-port="0" />
		<edge from-layer="1410" from-port="0" to-layer="1411" to-port="1" />
		<edge from-layer="1411" from-port="2" to-layer="1413" to-port="0" />
		<edge from-layer="1411" from-port="2" to-layer="1421" to-port="0" />
		<edge from-layer="1412" from-port="0" to-layer="1413" to-port="1" />
		<edge from-layer="1413" from-port="2" to-layer="1414" to-port="1" />
		<edge from-layer="1414" from-port="2" to-layer="1415" to-port="0" />
		<edge from-layer="1414" from-port="2" to-layer="1432" to-port="0" />
		<edge from-layer="1415" from-port="1" to-layer="1419" to-port="0" />
		<edge from-layer="1416" from-port="0" to-layer="1419" to-port="1" />
		<edge from-layer="1417" from-port="0" to-layer="1419" to-port="2" />
		<edge from-layer="1418" from-port="0" to-layer="1419" to-port="3" />
		<edge from-layer="1419" from-port="4" to-layer="1431" to-port="0" />
		<edge from-layer="1420" from-port="0" to-layer="1430" to-port="0" />
		<edge from-layer="1421" from-port="1" to-layer="1425" to-port="0" />
		<edge from-layer="1421" from-port="1" to-layer="1443" to-port="0" />
		<edge from-layer="1421" from-port="1" to-layer="1446" to-port="0" />
		<edge from-layer="1421" from-port="1" to-layer="1453" to-port="0" />
		<edge from-layer="1422" from-port="0" to-layer="1425" to-port="1" />
		<edge from-layer="1423" from-port="0" to-layer="1425" to-port="2" />
		<edge from-layer="1424" from-port="0" to-layer="1425" to-port="3" />
		<edge from-layer="1425" from-port="4" to-layer="1427" to-port="0" />
		<edge from-layer="1426" from-port="0" to-layer="1427" to-port="1" />
		<edge from-layer="1427" from-port="2" to-layer="1429" to-port="0" />
		<edge from-layer="1428" from-port="0" to-layer="1429" to-port="1" />
		<edge from-layer="1429" from-port="2" to-layer="1430" to-port="1" />
		<edge from-layer="1430" from-port="2" to-layer="1431" to-port="1" />
		<edge from-layer="1431" from-port="2" to-layer="1432" to-port="1" />
		<edge from-layer="1432" from-port="2" to-layer="1434" to-port="0" />
		<edge from-layer="1433" from-port="0" to-layer="1434" to-port="1" />
		<edge from-layer="1434" from-port="2" to-layer="1436" to-port="0" />
		<edge from-layer="1435" from-port="0" to-layer="1436" to-port="1" />
		<edge from-layer="1436" from-port="2" to-layer="1438" to-port="0" />
		<edge from-layer="1437" from-port="0" to-layer="1438" to-port="1" />
		<edge from-layer="1438" from-port="2" to-layer="1440" to-port="0" />
		<edge from-layer="1438" from-port="2" to-layer="1499" to-port="0" />
		<edge from-layer="1438" from-port="2" to-layer="1479" to-port="0" />
		<edge from-layer="1439" from-port="0" to-layer="1440" to-port="2" />
		<edge from-layer="1440" from-port="3" to-layer="1459" to-port="0" />
		<edge from-layer="1441" from-port="0" to-layer="1443" to-port="1" />
		<edge from-layer="1442" from-port="0" to-layer="1443" to-port="2" />
		<edge from-layer="1443" from-port="3" to-layer="1458" to-port="0" />
		<edge from-layer="1443" from-port="3" to-layer="1465" to-port="2" />
		<edge from-layer="1443" from-port="3" to-layer="1517" to-port="0" />
		<edge from-layer="1444" from-port="0" to-layer="1446" to-port="1" />
		<edge from-layer="1445" from-port="0" to-layer="1446" to-port="2" />
		<edge from-layer="1446" from-port="3" to-layer="1448" to-port="0" />
		<edge from-layer="1446" from-port="3" to-layer="1463" to-port="0" />
		<edge from-layer="1447" from-port="0" to-layer="1448" to-port="1" />
		<edge from-layer="1448" from-port="2" to-layer="1450" to-port="0" />
		<edge from-layer="1449" from-port="0" to-layer="1450" to-port="1" />
		<edge from-layer="1450" from-port="2" to-layer="1458" to-port="1" />
		<edge from-layer="1450" from-port="2" to-layer="1481" to-port="1" />
		<edge from-layer="1451" from-port="0" to-layer="1453" to-port="1" />
		<edge from-layer="1452" from-port="0" to-layer="1453" to-port="2" />
		<edge from-layer="1453" from-port="3" to-layer="1455" to-port="0" />
		<edge from-layer="1454" from-port="0" to-layer="1455" to-port="1" />
		<edge from-layer="1455" from-port="2" to-layer="1457" to-port="0" />
		<edge from-layer="1456" from-port="0" to-layer="1457" to-port="1" />
		<edge from-layer="1457" from-port="2" to-layer="1490" to-port="3" />
		<edge from-layer="1457" from-port="2" to-layer="1481" to-port="2" />
		<edge from-layer="1457" from-port="2" to-layer="1458" to-port="2" />
		<edge from-layer="1457" from-port="2" to-layer="1465" to-port="3" />
		<edge from-layer="1458" from-port="3" to-layer="1459" to-port="1" />
		<edge from-layer="1459" from-port="2" to-layer="1461" to-port="0" />
		<edge from-layer="1460" from-port="0" to-layer="1461" to-port="1" />
		<edge from-layer="1461" from-port="2" to-layer="1466" to-port="0" />
		<edge from-layer="1462" from-port="0" to-layer="1463" to-port="1" />
		<edge from-layer="1463" from-port="2" to-layer="1465" to-port="0" />
		<edge from-layer="1463" from-port="2" to-layer="1490" to-port="0" />
		<edge from-layer="1463" from-port="2" to-layer="1517" to-port="1" />
		<edge from-layer="1464" from-port="0" to-layer="1465" to-port="1" />
		<edge from-layer="1465" from-port="4" to-layer="1466" to-port="1" />
		<edge from-layer="1466" from-port="2" to-layer="1477" to-port="0" />
		<edge from-layer="1466" from-port="2" to-layer="1468" to-port="0" />
		<edge from-layer="1467" from-port="0" to-layer="1475" to-port="0" />
		<edge from-layer="1468" from-port="1" to-layer="1472" to-port="0" />
		<edge from-layer="1469" from-port="0" to-layer="1472" to-port="1" />
		<edge from-layer="1470" from-port="0" to-layer="1472" to-port="2" />
		<edge from-layer="1471" from-port="0" to-layer="1472" to-port="3" />
		<edge from-layer="1472" from-port="4" to-layer="1473" to-port="0" />
		<edge from-layer="1473" from-port="1" to-layer="1474" to-port="0" />
		<edge from-layer="1474" from-port="1" to-layer="1475" to-port="1" />
		<edge from-layer="1475" from-port="2" to-layer="1476" to-port="0" />
		<edge from-layer="1475" from-port="2" to-layer="1494" to-port="0" />
		<edge from-layer="1476" from-port="1" to-layer="1477" to-port="1" />
		<edge from-layer="1477" from-port="2" to-layer="1496" to-port="0" />
		<edge from-layer="1478" from-port="0" to-layer="1479" to-port="2" />
		<edge from-layer="1479" from-port="3" to-layer="1482" to-port="0" />
		<edge from-layer="1480" from-port="0" to-layer="1481" to-port="0" />
		<edge from-layer="1481" from-port="3" to-layer="1500" to-port="1" />
		<edge from-layer="1481" from-port="3" to-layer="1482" to-port="1" />
		<edge from-layer="1482" from-port="2" to-layer="1484" to-port="0" />
		<edge from-layer="1483" from-port="0" to-layer="1484" to-port="1" />
		<edge from-layer="1484" from-port="2" to-layer="1486" to-port="0" />
		<edge from-layer="1484" from-port="2" to-layer="1491" to-port="0" />
		<edge from-layer="1485" from-port="0" to-layer="1490" to-port="1" />
		<edge from-layer="1486" from-port="1" to-layer="1489" to-port="0" />
		<edge from-layer="1487" from-port="0" to-layer="1489" to-port="1" />
		<edge from-layer="1488" from-port="0" to-layer="1489" to-port="2" />
		<edge from-layer="1489" from-port="3" to-layer="1490" to-port="2" />
		<edge from-layer="1490" from-port="4" to-layer="1491" to-port="1" />
		<edge from-layer="1490" from-port="4" to-layer="1503" to-port="1" />
		<edge from-layer="1491" from-port="2" to-layer="1493" to-port="0" />
		<edge from-layer="1492" from-port="0" to-layer="1493" to-port="1" />
		<edge from-layer="1493" from-port="2" to-layer="1495" to-port="0" />
		<edge from-layer="1494" from-port="1" to-layer="1495" to-port="1" />
		<edge from-layer="1495" from-port="2" to-layer="1496" to-port="1" />
		<edge from-layer="1496" from-port="2" to-layer="1497" to-port="0" />
		<edge from-layer="1497" from-port="1" to-layer="1504" to-port="0" />
		<edge from-layer="1498" from-port="0" to-layer="1499" to-port="2" />
		<edge from-layer="1499" from-port="3" to-layer="1500" to-port="0" />
		<edge from-layer="1500" from-port="2" to-layer="1502" to-port="0" />
		<edge from-layer="1501" from-port="0" to-layer="1502" to-port="1" />
		<edge from-layer="1502" from-port="2" to-layer="1503" to-port="0" />
		<edge from-layer="1503" from-port="2" to-layer="1504" to-port="1" />
		<edge from-layer="1504" from-port="2" to-layer="1506" to-port="0" />
		<edge from-layer="1505" from-port="0" to-layer="1506" to-port="1" />
		<edge from-layer="1506" from-port="2" to-layer="1508" to-port="0" />
		<edge from-layer="1507" from-port="0" to-layer="1508" to-port="1" />
		<edge from-layer="1508" from-port="2" to-layer="1510" to-port="0" />
		<edge from-layer="1509" from-port="0" to-layer="1510" to-port="1" />
		<edge from-layer="1510" from-port="2" to-layer="1512" to-port="0" />
		<edge from-layer="1511" from-port="0" to-layer="1512" to-port="1" />
		<edge from-layer="1512" from-port="2" to-layer="1513" to-port="0" />
		<edge from-layer="1512" from-port="2" to-layer="1518" to-port="0" />
		<edge from-layer="1513" from-port="1" to-layer="1516" to-port="0" />
		<edge from-layer="1514" from-port="0" to-layer="1516" to-port="1" />
		<edge from-layer="1515" from-port="0" to-layer="1516" to-port="2" />
		<edge from-layer="1516" from-port="3" to-layer="1517" to-port="2" />
		<edge from-layer="1517" from-port="3" to-layer="1518" to-port="1" />
		<edge from-layer="1518" from-port="2" to-layer="1520" to-port="0" />
		<edge from-layer="1519" from-port="0" to-layer="1520" to-port="1" />
		<edge from-layer="1520" from-port="2" to-layer="1521" to-port="0" />
		<edge from-layer="1521" from-port="2" to-layer="1537" to-port="0" />
		<edge from-layer="1521" from-port="2" to-layer="1525" to-port="0" />
		<edge from-layer="1522" from-port="0" to-layer="1536" to-port="0" />
		<edge from-layer="1523" from-port="0" to-layer="1532" to-port="0" />
		<edge from-layer="1524" from-port="0" to-layer="1525" to-port="1" />
		<edge from-layer="1525" from-port="2" to-layer="1527" to-port="0" />
		<edge from-layer="1526" from-port="0" to-layer="1527" to-port="1" />
		<edge from-layer="1527" from-port="2" to-layer="1529" to-port="0" />
		<edge from-layer="1528" from-port="0" to-layer="1529" to-port="1" />
		<edge from-layer="1529" from-port="2" to-layer="1531" to-port="0" />
		<edge from-layer="1530" from-port="0" to-layer="1531" to-port="1" />
		<edge from-layer="1531" from-port="2" to-layer="1532" to-port="1" />
		<edge from-layer="1532" from-port="2" to-layer="1533" to-port="0" />
		<edge from-layer="1533" from-port="1" to-layer="1535" to-port="0" />
		<edge from-layer="1534" from-port="0" to-layer="1535" to-port="1" />
		<edge from-layer="1535" from-port="2" to-layer="1536" to-port="1" />
		<edge from-layer="1536" from-port="2" to-layer="1537" to-port="1" />
		<edge from-layer="1537" from-port="2" to-layer="1539" to-port="0" />
		<edge from-layer="1537" from-port="2" to-layer="1655" to-port="1" />
		<edge from-layer="1538" from-port="0" to-layer="1539" to-port="1" />
		<edge from-layer="1539" from-port="2" to-layer="1541" to-port="0" />
		<edge from-layer="1540" from-port="0" to-layer="1541" to-port="1" />
		<edge from-layer="1541" from-port="2" to-layer="1543" to-port="0" />
		<edge from-layer="1542" from-port="0" to-layer="1543" to-port="1" />
		<edge from-layer="1543" from-port="2" to-layer="1545" to-port="0" />
		<edge from-layer="1544" from-port="0" to-layer="1545" to-port="1" />
		<edge from-layer="1545" from-port="2" to-layer="1547" to-port="0" />
		<edge from-layer="1545" from-port="2" to-layer="1555" to-port="0" />
		<edge from-layer="1546" from-port="0" to-layer="1547" to-port="1" />
		<edge from-layer="1547" from-port="2" to-layer="1548" to-port="1" />
		<edge from-layer="1548" from-port="2" to-layer="1549" to-port="0" />
		<edge from-layer="1548" from-port="2" to-layer="1566" to-port="0" />
		<edge from-layer="1549" from-port="1" to-layer="1553" to-port="0" />
		<edge from-layer="1550" from-port="0" to-layer="1553" to-port="1" />
		<edge from-layer="1551" from-port="0" to-layer="1553" to-port="2" />
		<edge from-layer="1552" from-port="0" to-layer="1553" to-port="3" />
		<edge from-layer="1553" from-port="4" to-layer="1565" to-port="0" />
		<edge from-layer="1554" from-port="0" to-layer="1564" to-port="0" />
		<edge from-layer="1555" from-port="1" to-layer="1577" to-port="0" />
		<edge from-layer="1555" from-port="1" to-layer="1580" to-port="0" />
		<edge from-layer="1555" from-port="1" to-layer="1587" to-port="0" />
		<edge from-layer="1555" from-port="1" to-layer="1559" to-port="0" />
		<edge from-layer="1556" from-port="0" to-layer="1559" to-port="1" />
		<edge from-layer="1557" from-port="0" to-layer="1559" to-port="2" />
		<edge from-layer="1558" from-port="0" to-layer="1559" to-port="3" />
		<edge from-layer="1559" from-port="4" to-layer="1561" to-port="0" />
		<edge from-layer="1560" from-port="0" to-layer="1561" to-port="1" />
		<edge from-layer="1561" from-port="2" to-layer="1563" to-port="0" />
		<edge from-layer="1562" from-port="0" to-layer="1563" to-port="1" />
		<edge from-layer="1563" from-port="2" to-layer="1564" to-port="1" />
		<edge from-layer="1564" from-port="2" to-layer="1565" to-port="1" />
		<edge from-layer="1565" from-port="2" to-layer="1566" to-port="1" />
		<edge from-layer="1566" from-port="2" to-layer="1568" to-port="0" />
		<edge from-layer="1567" from-port="0" to-layer="1568" to-port="1" />
		<edge from-layer="1568" from-port="2" to-layer="1570" to-port="0" />
		<edge from-layer="1569" from-port="0" to-layer="1570" to-port="1" />
		<edge from-layer="1570" from-port="2" to-layer="1572" to-port="0" />
		<edge from-layer="1571" from-port="0" to-layer="1572" to-port="1" />
		<edge from-layer="1572" from-port="2" to-layer="1574" to-port="0" />
		<edge from-layer="1572" from-port="2" to-layer="1613" to-port="0" />
		<edge from-layer="1572" from-port="2" to-layer="1633" to-port="0" />
		<edge from-layer="1573" from-port="0" to-layer="1574" to-port="2" />
		<edge from-layer="1574" from-port="3" to-layer="1593" to-port="0" />
		<edge from-layer="1575" from-port="0" to-layer="1577" to-port="1" />
		<edge from-layer="1576" from-port="0" to-layer="1577" to-port="2" />
		<edge from-layer="1577" from-port="3" to-layer="1651" to-port="0" />
		<edge from-layer="1577" from-port="3" to-layer="1592" to-port="0" />
		<edge from-layer="1577" from-port="3" to-layer="1599" to-port="2" />
		<edge from-layer="1578" from-port="0" to-layer="1580" to-port="1" />
		<edge from-layer="1579" from-port="0" to-layer="1580" to-port="2" />
		<edge from-layer="1580" from-port="3" to-layer="1597" to-port="0" />
		<edge from-layer="1580" from-port="3" to-layer="1582" to-port="0" />
		<edge from-layer="1581" from-port="0" to-layer="1582" to-port="1" />
		<edge from-layer="1582" from-port="2" to-layer="1584" to-port="0" />
		<edge from-layer="1583" from-port="0" to-layer="1584" to-port="1" />
		<edge from-layer="1584" from-port="2" to-layer="1592" to-port="1" />
		<edge from-layer="1584" from-port="2" to-layer="1615" to-port="1" />
		<edge from-layer="1585" from-port="0" to-layer="1587" to-port="1" />
		<edge from-layer="1586" from-port="0" to-layer="1587" to-port="2" />
		<edge from-layer="1587" from-port="3" to-layer="1589" to-port="0" />
		<edge from-layer="1588" from-port="0" to-layer="1589" to-port="1" />
		<edge from-layer="1589" from-port="2" to-layer="1591" to-port="0" />
		<edge from-layer="1590" from-port="0" to-layer="1591" to-port="1" />
		<edge from-layer="1591" from-port="2" to-layer="1624" to-port="3" />
		<edge from-layer="1591" from-port="2" to-layer="1592" to-port="2" />
		<edge from-layer="1591" from-port="2" to-layer="1599" to-port="3" />
		<edge from-layer="1591" from-port="2" to-layer="1615" to-port="2" />
		<edge from-layer="1592" from-port="3" to-layer="1593" to-port="1" />
		<edge from-layer="1593" from-port="2" to-layer="1595" to-port="0" />
		<edge from-layer="1594" from-port="0" to-layer="1595" to-port="1" />
		<edge from-layer="1595" from-port="2" to-layer="1600" to-port="0" />
		<edge from-layer="1596" from-port="0" to-layer="1597" to-port="1" />
		<edge from-layer="1597" from-port="2" to-layer="1624" to-port="0" />
		<edge from-layer="1597" from-port="2" to-layer="1599" to-port="0" />
		<edge from-layer="1597" from-port="2" to-layer="1651" to-port="1" />
		<edge from-layer="1598" from-port="0" to-layer="1599" to-port="1" />
		<edge from-layer="1599" from-port="4" to-layer="1600" to-port="1" />
		<edge from-layer="1600" from-port="2" to-layer="1611" to-port="0" />
		<edge from-layer="1600" from-port="2" to-layer="1602" to-port="0" />
		<edge from-layer="1601" from-port="0" to-layer="1609" to-port="0" />
		<edge from-layer="1602" from-port="1" to-layer="1606" to-port="0" />
		<edge from-layer="1603" from-port="0" to-layer="1606" to-port="1" />
		<edge from-layer="1604" from-port="0" to-layer="1606" to-port="2" />
		<edge from-layer="1605" from-port="0" to-layer="1606" to-port="3" />
		<edge from-layer="1606" from-port="4" to-layer="1607" to-port="0" />
		<edge from-layer="1607" from-port="1" to-layer="1608" to-port="0" />
		<edge from-layer="1608" from-port="1" to-layer="1609" to-port="1" />
		<edge from-layer="1609" from-port="2" to-layer="1610" to-port="0" />
		<edge from-layer="1609" from-port="2" to-layer="1628" to-port="0" />
		<edge from-layer="1610" from-port="1" to-layer="1611" to-port="1" />
		<edge from-layer="1611" from-port="2" to-layer="1630" to-port="0" />
		<edge from-layer="1612" from-port="0" to-layer="1613" to-port="2" />
		<edge from-layer="1613" from-port="3" to-layer="1616" to-port="0" />
		<edge from-layer="1614" from-port="0" to-layer="1615" to-port="0" />
		<edge from-layer="1615" from-port="3" to-layer="1616" to-port="1" />
		<edge from-layer="1615" from-port="3" to-layer="1634" to-port="1" />
		<edge from-layer="1616" from-port="2" to-layer="1618" to-port="0" />
		<edge from-layer="1617" from-port="0" to-layer="1618" to-port="1" />
		<edge from-layer="1618" from-port="2" to-layer="1625" to-port="0" />
		<edge from-layer="1618" from-port="2" to-layer="1620" to-port="0" />
		<edge from-layer="1619" from-port="0" to-layer="1624" to-port="1" />
		<edge from-layer="1620" from-port="1" to-layer="1623" to-port="0" />
		<edge from-layer="1621" from-port="0" to-layer="1623" to-port="1" />
		<edge from-layer="1622" from-port="0" to-layer="1623" to-port="2" />
		<edge from-layer="1623" from-port="3" to-layer="1624" to-port="2" />
		<edge from-layer="1624" from-port="4" to-layer="1625" to-port="1" />
		<edge from-layer="1624" from-port="4" to-layer="1637" to-port="1" />
		<edge from-layer="1625" from-port="2" to-layer="1627" to-port="0" />
		<edge from-layer="1626" from-port="0" to-layer="1627" to-port="1" />
		<edge from-layer="1627" from-port="2" to-layer="1629" to-port="0" />
		<edge from-layer="1628" from-port="1" to-layer="1629" to-port="1" />
		<edge from-layer="1629" from-port="2" to-layer="1630" to-port="1" />
		<edge from-layer="1630" from-port="2" to-layer="1631" to-port="0" />
		<edge from-layer="1631" from-port="1" to-layer="1638" to-port="0" />
		<edge from-layer="1632" from-port="0" to-layer="1633" to-port="2" />
		<edge from-layer="1633" from-port="3" to-layer="1634" to-port="0" />
		<edge from-layer="1634" from-port="2" to-layer="1636" to-port="0" />
		<edge from-layer="1635" from-port="0" to-layer="1636" to-port="1" />
		<edge from-layer="1636" from-port="2" to-layer="1637" to-port="0" />
		<edge from-layer="1637" from-port="2" to-layer="1638" to-port="1" />
		<edge from-layer="1638" from-port="2" to-layer="1640" to-port="0" />
		<edge from-layer="1639" from-port="0" to-layer="1640" to-port="1" />
		<edge from-layer="1640" from-port="2" to-layer="1642" to-port="0" />
		<edge from-layer="1641" from-port="0" to-layer="1642" to-port="1" />
		<edge from-layer="1642" from-port="2" to-layer="1644" to-port="0" />
		<edge from-layer="1643" from-port="0" to-layer="1644" to-port="1" />
		<edge from-layer="1644" from-port="2" to-layer="1646" to-port="0" />
		<edge from-layer="1645" from-port="0" to-layer="1646" to-port="1" />
		<edge from-layer="1646" from-port="2" to-layer="1647" to-port="0" />
		<edge from-layer="1646" from-port="2" to-layer="1652" to-port="0" />
		<edge from-layer="1647" from-port="1" to-layer="1650" to-port="0" />
		<edge from-layer="1648" from-port="0" to-layer="1650" to-port="1" />
		<edge from-layer="1649" from-port="0" to-layer="1650" to-port="2" />
		<edge from-layer="1650" from-port="3" to-layer="1651" to-port="2" />
		<edge from-layer="1651" from-port="3" to-layer="1652" to-port="1" />
		<edge from-layer="1652" from-port="2" to-layer="1654" to-port="0" />
		<edge from-layer="1653" from-port="0" to-layer="1654" to-port="1" />
		<edge from-layer="1654" from-port="2" to-layer="1655" to-port="0" />
		<edge from-layer="1655" from-port="2" to-layer="1659" to-port="0" />
		<edge from-layer="1655" from-port="2" to-layer="1671" to-port="0" />
		<edge from-layer="1656" from-port="0" to-layer="1670" to-port="0" />
		<edge from-layer="1657" from-port="0" to-layer="1666" to-port="0" />
		<edge from-layer="1658" from-port="0" to-layer="1659" to-port="1" />
		<edge from-layer="1659" from-port="2" to-layer="1661" to-port="0" />
		<edge from-layer="1660" from-port="0" to-layer="1661" to-port="1" />
		<edge from-layer="1661" from-port="2" to-layer="1663" to-port="0" />
		<edge from-layer="1662" from-port="0" to-layer="1663" to-port="1" />
		<edge from-layer="1663" from-port="2" to-layer="1665" to-port="0" />
		<edge from-layer="1664" from-port="0" to-layer="1665" to-port="1" />
		<edge from-layer="1665" from-port="2" to-layer="1666" to-port="1" />
		<edge from-layer="1666" from-port="2" to-layer="1667" to-port="0" />
		<edge from-layer="1667" from-port="1" to-layer="1669" to-port="0" />
		<edge from-layer="1668" from-port="0" to-layer="1669" to-port="1" />
		<edge from-layer="1669" from-port="2" to-layer="1670" to-port="1" />
		<edge from-layer="1670" from-port="2" to-layer="1671" to-port="1" />
		<edge from-layer="1671" from-port="2" to-layer="1673" to-port="0" />
		<edge from-layer="1672" from-port="0" to-layer="1673" to-port="1" />
		<edge from-layer="1673" from-port="2" to-layer="1675" to-port="0" />
		<edge from-layer="1674" from-port="0" to-layer="1675" to-port="1" />
		<edge from-layer="1675" from-port="2" to-layer="1677" to-port="0" />
		<edge from-layer="1676" from-port="0" to-layer="1677" to-port="1" />
		<edge from-layer="1677" from-port="2" to-layer="1679" to-port="0" />
		<edge from-layer="1678" from-port="0" to-layer="1679" to-port="2" />
		<edge from-layer="1679" from-port="3" to-layer="1681" to-port="0" />
		<edge from-layer="1680" from-port="0" to-layer="1681" to-port="1" />
		<edge from-layer="1681" from-port="2" to-layer="1683" to-port="0" />
		<edge from-layer="1682" from-port="0" to-layer="1683" to-port="1" />
		<edge from-layer="1683" from-port="2" to-layer="1684" to-port="0" />
	</edges>
	<rt_info>
		<MO_version value="2023.1.0-12185-9e6b00e51cd-releases/2023/1" />
		<Runtime_version value="2023.1.0-12185-9e6b00e51cd-releases/2023/1" />
		<conversion_parameters>
			<input_model value="DIR\model.onnx" />
			<is_python_api_used value="True" />
			<mean_values value="[123.675,116.28,103.53]" />
			<scale_values value="[58.395,57.12,57.375]" />
		</conversion_parameters>
		<legacy_frontend value="False" />
	</rt_info>
</net>
